model/fruitygnn_model.pth (torch, 692746 bytes, 67 tensors)

node_embedding.weight f4 [101, 50]
000000 72 e2 48 bf ba 98 db 3e d1 b5 51 3f 97 9e 39 bf
       -0.7847053 0.4288996 0.81918055 -0.72507614
000010 69 75 3b bf 98 39 6c bf 5d 08 55 bf 03 b1 1b bf
       -0.7322603 -0.9227538 -0.83215886 -0.60816973
000020 1f 04 82 3f b2 d1 2e bf 89 be 2d c0 ba 94 d8 3e
       1.0157508 -0.6828872 -2.7147543 0.4230097
000030 73 97 83 3e d7 4b 02 bd cf 2b 01 3f 88 d5 ef 3e
       0.25701484 -0.031810608 0.5045747 0.468426
000040 86 d7 b9 be 14 05 b2 be 99 8e f4 3e e9 98 5b 3f
       -0.36297244 -0.347695 0.47765043 0.857802
000050 91 2c b7 be a3 c1 b2 bd 5b 2a cb bf bd 3a de 3e
       -0.3577619 -0.087283395 -1.5872301 0.4340419
000060 ea 5e 74 3f cc 0d 14 3f 9f 29 2e 40 bb bf 1a 3f
       0.9545733 0.5783355 2.7212903 0.6044881
000070 56 40 90 bf 1a 49 ee 3e 32 b7 03 40 6c 6f 8e bf
       -1.1269634 0.46540147 2.0580564 -1.1127753
000080 92 08 9d be a3 9e ff 3e 5c 6b aa bf 89 42 9a 3e
       -0.306706 0.49925718 -1.3314013 0.30128887
000090 fe 05 87 3f 69 06 71 bf df 75 ce 3e ef 2a 23 be
       1.0548704 -0.94150406 0.40324304 -0.15934347
0000a0 35 e9 cd 3d 90 c0 a8 3f 81 c3 a3 be 29 3d 26 3f
       0.10054246 1.3183765 -0.31985095 0.64937073
0000b0 04 74 ff 3f ba e5 3d bf 3c 33 b0 bf 13 9b e4 3f
       1.995728 -0.7417866 -1.3765635 1.7859825
0000c0 97 2b b3 3e 7e dd 46 3f 94 e0 f2 be 82 56 c9 bc
       0.34994194 0.7768172 -0.47436965 -0.024577383
0000d0 a0 4e 8c be 7b 7d b1 be 24 e6 b0 be 63 15 71 3f
       -0.27403736 -0.34666047 -0.34550583 0.9417326
0000e0 6b d1 c4 be a9 7c 90 3c 50 60 61 3e 2e ce ea 3e
       -0.38441023 0.017637568 0.22009397 0.45860428
0000f0 18 bc 07 bf 2f 5b e4 bf ac 29 14 bf 7a 9d 79 bf
       -0.53021383 -1.7840327 -0.57876086 -0.97505915
000100 f3 1e a9 3d 54 08 09 bf f2 16 6b 3d 79 20 f4 bd
       0.08257856 -0.5352833 0.05739493 -0.11920256
000110 a3 20 80 be 8e 7d 16 3e fb 33 a3 bf cf 03 84 3e
       -0.250249 0.14696333 -1.2750238 0.25784156
000120 2e e5 0e 3d 97 24 14 3f 22 c8 f1 3d c2 4d b4 3f
       0.03488653 0.5786833 0.118057504 1.408623
000130 17 f8 23 3f 12 d6 06 c0 9c 29 57 3e 00 0b bc bf
       0.6405043 -2.1068158 0.21011966 -1.4690857
000140 5c dc f3 3f 00 e2 00 40 b3 e1 b8 3e 14 0c 9e 3f
       1.9051623 2.013794 0.36109695 1.2347436
000150 d6 31 26 bf 94 52 10 3f 77 2a e7 3f b7 84 de bf
       -0.64919794 0.56376004 1.8059834 -1.7384251
000160 83 64 1f 3f 09 ba 18 bf 46 04 7d bf c0 01 30 3f
       0.62262744 -0.5965887 -0.98834646 0.6875267
000170 fb 85 76 3f c7 f6 bd bf 13 b4 a9 3f b9 15 9d 3e
       0.9629819 -1.4840935 1.3258079 0.30680636
000180 ee 4b 82 3d 70 67 ca bd 7c 71 30 3f 11 b9 56 3f
       0.06362139 -0.098830104 0.68923163 0.8387614
000190 71 6d d7 3f c6 5e 74 be c9 93 8e bf 36 d6 9c 3f
       1.6830274 -0.23864278 -1.113885 1.2252872
0001a0 61 78 0f c0 c3 ec e2 3f d8 d4 fd bd ad ca 4a 3f
       -2.2417223 1.7728504 -0.12394112 0.7921551
0001b0 d3 3b ce bf 62 44 a8 3f 1b ac 8e bf a5 9a c4 bf
       -1.6112007 1.3145869 -1.1146272 -1.5359694
0001c0 18 57 16 3f 32 f7 fb 3f 65 a4 e2 bf 7a 47 5b 3f
       0.58726645 1.9684813 -1.7706419 0.8565594
0001d0 f6 b3 6b bf 46 f4 09 be ad f0 a5 be e1 f3 61 bf
       -0.92071474 -0.13472089 -0.32410184 -0.88262755
0001e0 8f 9c 9e 3e 6a e5 c5 3f bb a9 f0 bf 2e 7e d4 3e
       0.3097882 1.5460637 -1.8801798 0.41502517
0001f0 cd c6 1f 3f 5e 30 a6 bf b3 39 96 3f 36 df 2f be
       0.6241272 -1.298351 1.1736358 -0.17174992
000200 d7 5b 59 bf 1f 9c 72 bf 3b f8 62 3f e0 e9 f8 3f
       -0.8490576 -0.9476947 0.8866002 1.9446373
000210 ce 5e bd bf ab 86 8e 3f 7d 8f 86 bf 2a 34 37 bf
       -1.4794557 1.1134847 -1.0512539 -0.7156397
000220 97 d6 a7 3e 70 e6 cb 3d ce e4 9c 3f 76 d1 8a 3f
       0.32780907 0.09956062 1.2257326 1.0845172
000230 5d ed 50 3f b2 78 9e 3f 10 36 8e 3f 01 0d 26 3f
       0.8161219 1.2380583 1.1110249 0.6486359
000240 70 df a1 3f 31 13 36 3f c5 09 8e be 48 d1 02 be
       1.2646313 0.71123034 -0.2774183 -0.12775147
000250 fb f5 85 3f a4 6d e6 bf 66 23 5b be e1 3e 38 40
       1.0465692 -1.800221 -0.21400222 2.8788378
000260 ce 29 3a 3f 32 33 13 bf cf fc a4 bf 57 bd 84 bf
       0.7272004 -0.5749999 -1.2889651 -1.0370282
000270 a3 64 65 3f 1b b5 a6 3f d6 08 1f 3f 49 1a 9f 3f
       0.89606684 1.3024019 0.6212286 1.2429897
000280 9a e1 de be d0 60 28 be da bb ac be a1 95 ad bd
       -0.43531495 -0.16443181 -0.3373707 -0.08475805
000290 ae 16 0d bf b7 0f 65 bf b5 2b 65 3c a7 b5 6d bf
       -0.5511273 -0.89477104 0.013987471 -0.92855304
0002a0 69 4e 19 be 81 a0 8b bf 1a e4 04 be ac f1 0e be
       -0.14971317 -1.0908357 -0.12977639 -0.13959378
0002b0 3a 5b 1a 3e fb 99 7a 3e 8e 11 bf 3f 96 f1 dc bd
       0.15073863 0.24472801 1.4927232 -0.10788266
0002c0 97 1b 89 bf 74 10 82 bf 36 80 69 3f f6 26 a1 bf
       -1.0711545 -1.0161271 0.9121126 -1.2590015
0002d0 08 0c 8f 3c bc 1d 44 3f d8 34 cf be b5 01 9b 3f
       0.017461792 0.7660787 -0.40470004 1.2109896
0002e0 0d ab 22 3f 99 0b 17 3f da 19 98 be c1 d5 49 bf
       0.6354225 0.5900207 -0.29707223 -0.7884179
0002f0 c5 c0 e9 bf 08 85 fa 3e f6 64 e3 be 43 56 c7 3e
       -1.8261954 0.4892962 -0.44412965 0.38933
000300 e6 66 54 bf 5d 59 12 bf 7d 18 91 bf 12 83 c5 3e
       -0.8296951 -0.5716761 -1.1335598 0.3857656
000310 2c 20 bb bd c5 78 da be c5 26 89 3f 1f e7 98 3e
       -0.09136996 -0.42670265 1.0714957 0.2986383
000320 07 88 2f 3f 45 27 07 40 f0 01 60 be 73 8a b8 3e
       0.68566936 2.1117718 -0.21875739 0.36043128
000330 30 b1 e4 be 42 3d 81 be bd 21 2a 3e f9 da af 3f
       -0.44666433 -0.25242049 0.16614433 1.37387
000340 6e 38 c5 be f3 71 c0 3d be 0c 16 3e 14 47 91 bf
       -0.38519615 0.09396734 0.14653298 -1.1349816
000350 28 c9 b6 bf ac 93 cc be c5 35 20 c0 ea 45 c1 3f
       -1.4280138 -0.39956415 -2.5032818 1.5099461
000360 f0 f8 45 3c c9 30 12 3f 35 01 b7 bf 03 04 89 bf
       0.012083277 0.5710569 -1.4297243 -1.0704349
000370 cf 95 86 3e 8d 6a fa bf 79 e7 d6 3f cd 49 3c 3f
       0.2628617 -1.9563767 1.678939 0.7355011
000380 ea 8d d8 3f 6c d8 75 3f 70 a8 17 c0 3f 33 18 3e
       1.6918309 0.9603336 -2.3696556 0.14863299
000390 19 df e7 bd c2 11 d8 3f c4 88 73 3e 4b 95 4e bf
       -0.113218494 1.6880419 0.2378264 -0.80696553
0003a0 d7 96 36 40 15 77 70 3f 19 8b c2 3f 27 f5 2e 3f
       2.8529565 0.93931705 1.5198699 0.6834282
0003b0 64 6b 18 3f cb 4d 3b bf 5c 91 27 bf e7 d5 2b bf
       0.59538865 -0.7316558 -0.65456176 -0.67123264
0003c0 1e dc f2 bf 15 71 b7 3f c7 34 fc 3e 49 f1 80 bd
       -1.8973424 1.4331385 0.49259016 -0.062960215
0003d0 95 25 c8 3f ec b0 21 bf 58 97 a1 bf 2b 36 58 be
       1.5636469 -0.63160586 -1.2624311 -0.21114413
0003e0 98 48 78 3d 30 3f bb bf 1d aa dc 3e b1 6e bd 3f
       0.060616106 -1.4628658 0.43098536 1.4799405
0003f0 28 c9 db be 86 55 8a 3f 70 af 43 bf 79 a6 06 be
       -0.42926908 1.080735 -0.7643957 -0.13149442

edge_embedding.weight f4 [5, 50]
000000 72 9a ce 3f 95 fd a7 be 87 55 7b bf 39 32 d8 be
       1.6140883 -0.32810655 -0.9817738 -0.42225817
000010 d8 f1 25 bc 3a e3 86 bd 0e 1f ce 3e 5f be 17 3e
       -0.010128461 -0.06586309 0.40258068 0.14818715
000020 63 bf 68 bf e5 e7 65 be 0d 81 c8 bf 79 2a 18 3f
       -0.9091703 -0.22451742 -1.5664383 0.5943981
000030 d6 5f b1 bf 65 15 91 be 34 86 85 3f f4 9f 0c 40
       -1.3857372 -0.28336635 1.043158 2.1972628
000040 43 d0 f2 3f 42 4d b1 bf 9a b1 2a bf d7 06 1c 3e
       1.8969806 -1.3851702 -0.6667725 0.15236984
000050 05 ab 16 c0 df 41 9c bf 98 a1 08 40 6a 32 e8 bf
       -2.3541882 -1.2207602 2.134863 -1.8140385
000060 22 4a 50 3f 66 42 72 3e 4e c1 41 3f 81 d1 4c 3f
       0.8136312 0.23658141 0.75685585 0.8000718
000070 50 8f ab 3f 42 ac d9 bf ff 09 20 3f 0a 89 f1 3e
       1.340311 -1.7005694 0.6251525 0.47174865
000080 72 b9 0d bf 92 23 a4 bd 6c 6e 42 bf 6a 18 18 3f
       -0.5536109 -0.08014597 -0.7594974 0.5941225
000090 64 33 43 be a2 4b b0 bf 80 5c 82 3e 81 71 81 3e
       -0.19062573 -1.3773081 0.25461197 0.2528191
0000a0 b6 a2 6e 3f 30 e8 03 3e 2e 82 d3 bf af 92 e5 be
       0.9321703 0.12881541 -1.6524103 -0.44838473
0000b0 89 f0 bb 3f 7a b0 cc be 47 d7 71 bf c2 fc 01 3f
       1.468278 -0.3997839 -0.9446911 0.507763
0000c0 df c8 82 3f ca ad 12 bf ff e9 03 3f a6 34 b4 be
       1.0217551 -0.5729643 0.51528925 -0.35196418
0000d0 60 fd 22 3c b0 cb b7 be 13 94 d0 bf 89 37 88 be
       0.009948105 -0.3589759 -1.6295189 -0.2660487
0000e0 a9 ba 12 3f f7 f6 c4 bf df 97 27 3f ff 34 0a bf
       0.5731607 -1.5387868 0.6546611 -0.53987116
0000f0 af fb da 3f 56 5d ba bf 14 b0 5a bf cd 54 2a bf
       1.7108058 -1.4559734 -0.85424924 -0.66535646
000100 34 17 c4 bf 03 aa 32 3f e4 eb 04 bf b8 64 da 3e
       -1.5319581 0.6979067 -0.5192244 0.42654967
000110 55 51 9f 3f d9 9a f7 3e 40 31 a4 3f 51 7e a7 bd
       1.2446696 0.48360327 1.282753 -0.0817839
000120 4b f8 f9 3e 53 e1 8b 3e bd c5 23 3f 64 a8 19 3f
       0.48822245 0.27320346 0.639736 0.6002257
000130 a3 57 a8 3f 66 0e 19 bf cd 80 f4 3e 26 47 ee 3f
       1.3151745 -0.59787595 0.47754517 1.8615463
000140 11 e3 ee 3f fe 13 5a 3f 0c b3 28 c0 21 0d 36 bc
       1.8663045 0.85186756 -2.6359282 -0.011111529
000150 46 67 02 3f 84 55 c8 3d 3e 4d 3d 3f 73 5f c2 3f
       0.5093883 0.09781936 0.7394599 1.5185379
000160 be fa 87 3f 2e d0 10 3a 34 04 71 c0 44 a9 96 bf
       1.0623395 0.0005524185 -3.7658815 -1.1770406
000170 37 35 a1 bf 3b ab 97 bf a0 7a 33 bf 25 4b 88 3c
       -1.2594365 -1.184913 -0.70108986 0.016637394
000180 c6 a6 28 3f eb 1b e5 3e e0 90 fd bc 41 a0 4a 3f
       0.65879476 0.44747862 -0.03095287 0.7915078
000190 c3 9f 6c bf 6b 1e 43 bf fe 36 72 bf a6 6b 8b 3e
       -0.9243128 -0.7621829 -0.9461516 0.27230567
0001a0 37 c1 f9 bd df b5 85 3f ac 43 c5 bf c6 79 2d 3d
       -0.12195056 1.0446128 -1.5411277 0.04235246
0001b0 57 af 0d 3e 12 bf 32 3d 33 63 fe bf 8c 0a a3 3d
       0.13836418 0.04363925 -1.9874023 0.07960996
0001c0 4d af 89 be a1 d4 75 3f e1 63 b9 3e 89 f3 1d bf
       -0.26891556 0.9602757 0.36209014 -0.6169973
0001d0 97 db f4 3e 99 16 5c bf fc 41 b5 3f d3 53 20 bf
       0.47823784 -0.8597198 1.4160762 -0.62627906
0001e0 62 ff 87 bf 74 73 b5 3c 41 41 a2 bd ee 45 41 40
       -1.0624812 0.022149779 -0.079226024 3.0198932
0001f0 cd 14 53 bf 56 d4 6b 3f bb da c7 3f c6 b4 75 be
       -0.82453614 0.92120874 1.5613626 -0.23994741
000200 00 47 b9 bf 49 0f 50 bf f3 68 ca 3f d5 d7 59 bf
       -1.4474792 -0.81273323 1.5813278 -0.8509496
000210 01 07 ca bd 4c cf 6e 3f 0c d2 da be 72 40 79 bf
       -0.09864617 0.9328506 -0.42738378 -0.9736396
000220 de 63 0f 3e d9 0b 1c 40 0f 9a 28 bf b4 70 3b be
       0.1400294 2.4382231 -0.65860075 -0.18304712
000230 9f 88 3b 3f 3f 04 e9 3e fa bf 05 c0 52 4c 5f 3f
       0.7325534 0.45511052 -2.0898423 0.8722583
000240 a1 59 ab bf 9a a5 b3 3f e7 7d ac be 71 0a 3a 3e
       -1.3386728 1.4034913 -0.33689806 0.18168046
000250 d7 f0 99 be a8 1e 7c 3f a7 c9 01 be e8 4e de bf
       -0.3006656 0.9848428 -0.1267458 -1.736783
000260 3d 37 8b be d7 48 2f 3f c9 27 05 c0 94 81 b3 bf
       -0.2719058 0.6847052 -2.0805533 -1.4023919
000270 76 0b 9a bd fc d6 cd 3f be 91 d9 bf 8d cf 08 3c
       -0.07521717 1.6081233 -1.6997602 0.008350265
000280 26 77 ca bf 2c 36 2f 3f 51 49 4a 3f 26 a9 1a bf
       -1.5817611 0.68442035 0.7901812 -0.6041435
000290 15 6d 1a bf a0 58 12 40 ad 89 27 3f 1c f7 cb bf
       -0.60322696 2.2866592 0.6544445 -1.5934787
0002a0 a5 53 09 3e e4 e3 71 bf 4f 9a 79 3f 4d c9 9b 3f
       0.13410814 -0.9448836 0.9750108 1.2170807
0002b0 c8 28 d7 bf db 1a b4 3e 16 67 55 bf 69 e1 16 3e
       -1.680932 0.3517674 -0.8336042 0.14734425
0002c0 7a 26 14 40 86 07 d3 be b7 72 8e 3f b7 76 f8 bd
       2.3148484 -0.41216677 1.1128758 -0.12132018
0002d0 75 e1 2e bf fd 86 f6 bf 55 ec 05 3f 7a 8b 8c 3f
       -0.6831277 -1.9259945 0.5231374 1.0980065
0002e0 64 00 aa 3f ab d8 da 3f 8d 77 43 bf d1 91 58 be
       1.3281369 1.7097372 -0.76354295 -0.21149375
0002f0 50 a4 bd 3f f4 74 71 3e 0e b6 07 3f f3 c8 0d 40
       1.4815769 0.2357977 0.5301217 2.21539
000300 a3 73 92 bf f9 53 e8 bd a4 71 16 40 63 e2 a1 3f
       -1.144154 -0.113441415 2.350686 1.2647213
000310 0e d5 ec 3f aa 90 d1 bf fb b0 a3 3f b1 94 c7 be
       1.8502519 -1.6372273 1.2788385 -0.3898063
000320 15 a3 c5 3f c6 fb ba bf d4 94 88 3b 95 77 6e bd
       1.5440394 -1.4608085 0.0041681323 -0.05821951
000330 02 46 3b bf cf bd bd 3e 77 02 a3 3f 02 42 4e 40
       -0.731537 0.37058875 1.2735127 3.2227788
000340 7e 79 70 be 44 c2 49 3e ca f7 e9 be 68 e8 03 3f
       -0.23483846 0.19703013 -0.4569686 0.515265
000350 3f ec 0d 3f 9a 8f 60 3f 02 25 3d 3e 6a 67 85 3d
       0.5543861 0.8771912 0.18471149 0.06513865
000360 c7 8b 9e 3e a0 9f 80 3d a1 fe 21 3e 83 73 b7 bb
       0.30966017 0.06280446 0.1581979 -0.005598487
000370 e5 00 a3 3f 29 34 95 3f f3 ee 82 bd 80 78 07 bf
       1.2734648 1.1656543 -0.06393232 -0.52918243
000380 7c b9 19 3f 11 d2 12 40 59 a3 6d 3d f3 89 33 3d
       0.6004865 2.2940714 0.05801711 0.04383273
000390 98 46 b3 bf 47 dd 90 3d 4c 4d 7b bf 68 46 15 3e
       -1.4005919 0.07073455 -0.9816482 0.14577639
0003a0 23 73 5c 3f 8c 84 fe 3e c8 e1 86 bf b0 55 8a 3e
       0.86113185 0.497105 -1.0537653 0.270185
0003b0 7c f8 02 3e d5 e0 54 bf 6f 28 17 3e ba 5e 9c 3d
       0.12790102 -0.83155566 0.14761518 0.07635255
0003c0 10 a7 26 3e 53 7f 54 3e 7a e7 cf 3e 5b fe 8b 3c
       0.16274667 0.20751695 0.4060629 0.01708906
0003d0 e4 ee 46 bf 9e b4 23 be 66 0a 32 be c6 ce 3f bf
       -0.7770827 -0.15986869 -0.17386779 -0.74924886
0003e0 48 bf 2b be a6 71 cf bf
       -0.16772187 -1.6206558

layers.0.node_message_mlp.0.weight f4 [50, 100]
000000 ae e5 f1 bb 1d 0a 15 bd c1 06 45 bd 89 d9 37 3d
       -0.0073821163 -0.036386598 -0.048102144 0.044885192
000010 63 d9 6f bd ec 87 6d 3d c6 87 82 bc ba 65 68 3c
       -0.058556926 0.057990953 -0.015933882 0.01418441
000020 30 f1 2f bd 36 d7 72 bd 97 e8 c7 3c ce 7b 5f bc
       -0.042954624 -0.059287272 0.0244029 -0.013640357
000030 12 95 a0 3d 79 c1 94 bd 8c d1 8f bc 1e 13 83 3d
       0.07840933 -0.072634645 -0.017555974 0.06400131
000040 76 25 26 bc e2 57 8e 3d 10 eb 8c bd 1f 53 db 3c
       -0.010140767 0.06950356 -0.06880772 0.026773034
000050 4a ea 2f 3d 2a 34 9b bd 89 e9 37 3c 0b 97 88 3b
       0.042948045 -0.07578309 0.011225113 0.0041683963
000060 08 00 34 bc 7c 39 3d bc 15 25 34 3d 46 5a bd 3d
       -0.010986336 -0.01154935 0.043980677 0.09245734
000070 71 9c a2 3d ee f4 50 3d b5 4d ec 3c 99 b4 05 3d
       0.07939995 0.051014833 0.028845647 0.032642934
000080 d1 50 d0 3c a0 7c be bd ad 4a 48 bd ed 45 01 bc
       0.025429161 -0.09301114 -0.04889934 -0.007890207
000090 49 3e 84 3d a6 75 83 3d b1 b9 5d bb 42 a7 8d bd
       0.064571925 0.06418924 -0.0033832605 -0.069166675
0000a0 8a 9c 4e bd 59 0b 92 3d 9f fb 8b bd 62 07 87 3d
       -0.050442256 0.07131071 -0.06835102 0.06593205
0000b0 b5 7a 21 3c 79 ed c1 3c 1e a8 3d 3b d4 84 d8 3d
       0.009855916 0.023672806 0.0028939317 0.1057221
0000c0 46 de b0 3d 38 3d 6e 3d be 91 b2 bc bd d7 65 bc
       0.08636145 0.05816385 -0.02179801 -0.014028487
0000d0 f1 2f 40 bb 3b 7a 15 3d 57 21 08 3d dc 38 b1 bd
       -0.002932545 0.03649352 0.03323492 -0.08653423
0000e0 82 16 a2 bc b9 c9 67 3d 21 5c 7c 3d 70 4a b6 3c
       -0.019786123 0.056588862 0.0616113 0.022252291
0000f0 fd 38 ac bd f2 bf e2 bc 36 2b 59 3c 00 27 56 bd
       -0.08409307 -0.027679417 0.013254931 -0.052283287
000100 61 88 45 3d 15 26 36 3d 32 de b3 bd 89 fc 4e bd
       0.048225764 0.04446991 -0.08782615 -0.050533805
000110 54 50 6a 3d 48 3d b0 bd c2 75 ab 3d 68 e8 47 bd
       0.057205513 -0.086054385 0.0837207 -0.048805624
000120 22 e1 8d 3d b6 05 ad bd 59 17 50 bc 74 2e ac bd
       0.06927706 -0.08448355 -0.012700879 -0.08407298
000130 49 87 7d 3d e1 d1 c6 3d 15 c5 0b 3b 8d 1e 71 3d
       0.061896596 0.09708 0.0021327187 0.058867026
000140 b9 a8 ff 3c 96 58 b0 3d bb ab 2a bd 84 9a 9d bd
       0.031208383 0.086106464 -0.04166768 -0.07695487
000150 92 44 01 3d f0 e8 95 bd c4 bb c9 bd 8e f8 85 bd
       0.031559534 -0.0731982 -0.098502666 -0.06541549
000160 4d f6 c2 bd 98 a3 2e bd ca b6 bb 3d 9e 56 9a bd
       -0.095196344 -0.042636484 0.091657236 -0.07536052
000170 8f 9d 93 3a ea 5f 43 bd 79 8f 0e 3c 8a b0 84 3c
       0.0011262166 -0.047698893 0.008701199 0.016197462
000180 e7 ee 0d 3b 53 d8 58 3d ff e1 8b bd c3 9e 62 3d
       0.002165729 0.052940678 -0.06830215 0.05532719
000190 46 49 5c 3d 44 04 08 3c 37 22 11 bd 5d 41 cb bd
       0.053780816 0.008301798 -0.03543302 -0.099245764
0001a0 fd 49 ea bc 88 47 e5 bd f4 52 2d 3d d3 b1 91 bd
       -0.028599733 -0.11195284 0.04231544 -0.071139954
0001b0 39 96 a8 3c 7c ec 08 be aa cd 3d 3d bb 69 cc 3d
       0.020579444 -0.13371462 0.046338715 0.09981104
0001c0 3a cc 2c bc 3c 5a 25 bd 7e 6e d5 bc a5 49 85 bc
       -0.010546738 -0.040369257 -0.026053663 -0.016270468
0001d0 88 00 81 3d ab 18 c4 3c 0b c8 58 bd 84 44 02 3e
       0.062989295 0.023937544 -0.05292515 0.12721449
0001e0 b8 cb 8c 3d 71 af 8b bd 44 6d c4 bc ba f3 3f 3d
       0.06874794 -0.06820572 -0.023977883 0.046863295
0001f0 dc 6b 6c 3d 7f 4b 73 bc 4e d4 ab bc 1b 53 39 3d
       0.05772005 -0.014849543 -0.020975258 0.04524527
000200 4d 9a 99 bd e6 45 9d 3c 4f a4 45 bd 01 13 cc bd
       -0.07500134 0.01919837 -0.0482524 -0.09964562
000210 dc 04 82 3c 90 fc 4c 3d 63 4f 6c bc 53 51 18 be
       0.015871458 0.05004555 -0.014423224 -0.14874773
000220 1b 15 38 bd ca 0f d9 3d 03 bd ac bd 20 f1 a9 3d
       -0.044942003 0.10598715 -0.084344886 0.08297944
000230 71 4b f1 bd 4c 51 cc bd f5 0a 2d bd b0 41 00 bb
       -0.117819674 -0.09976444 -0.042246778 -0.0019570403
000240 a6 e5 02 3c 22 18 d2 3c da 49 67 bd f1 67 32 be
       0.007989323 0.025646273 -0.056466915 -0.17422463
000250 6b b3 b2 bc c6 e8 d5 bc 37 02 1f be 3e c0 8a bd
       -0.021814069 -0.026111972 -0.15528189 -0.067749485
000260 14 03 f6 bd 01 96 ee 3c 7d 45 b5 3d 04 04 48 3c
       -0.12012306 0.029124262 0.088511445 0.012207989
000270 53 07 05 be f7 f4 6d bc b0 f2 55 3c 53 c6 e7 3c
       -0.12991075 -0.014523736 0.0130583495 0.02829281
000280 9d 7a 1b bd 0d be 12 bc 2f 5a 8f 3c 24 fd cd 3d
       -0.03795873 -0.008956444 0.017499058 0.10058048
000290 0f b0 27 3d 2d 1a 83 bc 51 2f ba 3d 47 67 ae bd
       0.040939387 -0.016003693 0.09091056 -0.08515792
0002a0 b8 c9 05 3e 10 1f 25 be 40 38 bf bd 24 59 c1 bc
       0.13065231 -0.1612513 -0.09336901 -0.023602076
0002b0 4a f8 2e bd 72 fc 0d 3e 91 15 d0 bd e7 6f 4a 3d
       -0.042717256 0.13865831 -0.101603635 0.049423125
0002c0 21 14 e0 3d 89 b5 a9 3d 8b 06 68 bd c0 46 c3 bd
       0.10941339 0.08286578 -0.056646865 -0.09534979
0002d0 9d a8 f0 3d 3c bf 90 3c 0c 1f 00 3d 78 46 6c bc
       0.117509104 0.017669313 0.03127961 -0.014421098
0002e0 4c ff ea 3a 97 50 e5 bd 1e e0 81 bd 1d 33 2f 3d
       0.0017928868 -0.11197012 -0.06341575 0.042773355
0002f0 12 42 a2 3c 27 ff 99 3c c4 e6 43 3d d5 ba 6f 3c
       0.019806895 0.018798424 0.047827497 0.014631947
000300 32 5f bd bd 60 68 ef 3d 65 ef 54 3d 0e bb d9 3d
       -0.09246673 0.1168983 0.051986117 0.10631381
000310 a4 59 81 bd 9f 45 7e 3d 73 b0 1b bc 0e 84 c8 b9
       -0.06315926 0.062078115 -0.009502518 -0.0003824536
000320 70 46 13 be bd f3 86 bd ab 26 1e be aa 38 c7 3d
       -0.14382339 -0.06589458 -0.15444438 0.09727605
000330 a9 d3 e6 3d 62 df 77 bd e8 72 83 be f7 91 ac bd
       0.1127084 -0.06051577 -0.25673604 -0.08426278
000340 fb 90 ab 3d 0c 1c 1b 3e 21 0b 14 3e 2f 42 c4 3e
       0.08377262 0.15147418 0.1445737 0.38331744
000350 a7 60 c1 3d c2 0d 5b be 8a 87 87 3e ae 6d 84 be
       0.09442263 -0.21391967 0.26470596 -0.2586493
000360 b1 6b f3 bd 7e ad 1d 3e 5f 71 35 bd 4c fe 8b 3e
       -0.11885775 0.15398213 -0.044297572 0.2734245
000370 43 e0 01 3e 7e 43 54 3c 65 f0 8b bc 6c d6 e3 be
       0.12683205 0.0129555445 -0.017082402 -0.44499528
000380 3e f8 93 3c ca 7a b3 bc d6 74 30 bd 36 dc 18 be
       0.018062707 -0.021909136 -0.043080173 -0.14927754
000390 f6 73 83 3e f1 ed 86 3d 82 e5 b5 be fb 28 4b 3d
       0.2567441 0.065883525 -0.35526663 0.04959963
0003a0 a7 6b 26 3e 05 74 57 be 91 10 4f bd fe 39 8d bc
       0.16252004 -0.21040352 -0.05055291 -0.017239567
0003b0 b0 f3 24 bd b6 90 a0 bc 76 29 01 3e ca 59 94 3d
       -0.04027146 -0.019600254 0.12613472 0.072436884
0003c0 d5 1d 20 3e 30 3e 8a 3d 25 b8 1d be f0 e7 d1 3e
       0.1563638 0.067501426 -0.15402277 0.40997267
0003d0 ff 81 b4 bd 9e e5 88 bd 7c e1 8d bc 3f b2 e2 bd
       -0.08813857 -0.06684421 -0.017319433 -0.11069154
0003e0 96 e9 f3 bd 99 aa 1e be 1d 96 fa bc 81 41 86 bd
       -0.11909787 -0.15494765 -0.030589158 -0.06555463
0003f0 cf e1 03 3d 7e 45 3f 3e f4 15 b9 3d a0 f9 9f be
       0.03219777 0.18678853 0.0903739 -0.31245136

layers.0.node_message_mlp.0.bias f4 [50]
000000 ee 5a 61 3d 59 6a c4 3d 73 60 4e bb d0 fa 1b bc
       0.055018358 0.09590597 -0.0031490594 -0.009520248
000010 89 29 25 bd 90 d1 e4 3d c0 94 1c be e8 8e da bd
       -0.040322814 0.111727834 -0.15291119 -0.106717885
000020 89 4e 2a bd e1 ca e9 bd 53 b0 05 3d 38 bf 94 bd
       -0.041578803 -0.11415649 0.03263886 -0.072630346
000030 27 c9 2d 3d a0 6b a6 3c 9d 09 7b 3d fd 8f 3f 3d
       0.042428162 0.020314991 0.061288465 0.046768177
000040 b4 44 f2 bd e3 8c ab 3d f8 33 00 bd 5a 43 be bd
       -0.1182951 0.083764814 -0.03129956 -0.0929019
000050 8c 4c 31 bd 72 69 78 3c 10 13 8e bd b9 32 ca 3c
       -0.04328589 0.015161859 -0.0693723 0.02468239
000060 58 ae 84 bd f3 79 65 bd f4 0b 68 3b e0 bb 35 bd
       -0.06478566 -0.056024503 0.0035407515 -0.044368625
000070 7d d7 a8 bd b9 86 57 3d 8c 0f dd 3d 41 27 dd bc
       -0.08244226 0.052618716 0.10793981 -0.026996257
000080 d1 87 32 3d fd df b0 bb 2d e8 db bd c4 93 99 3d
       0.043586556 -0.0053977952 -0.107376434 0.07498887
000090 e5 cf 50 3d 4a 0a d3 bd 96 c2 0e bc d9 25 05 3d
       0.050979514 -0.10304697 -0.008713385 0.032506797
0000a0 22 4b b2 bd 13 0f 74 bd b1 3c 1d bd a6 e5 89 3d
       -0.08705737 -0.05958469 -0.038387958 0.06733255
0000b0 f2 6d 3e 3d 63 31 0f 3d f6 3c a8 3c 89 c1 df bc
       0.04649157 0.03495921 0.020536881 -0.027313964
0000c0 7c 52 57 bd 2f 69 f7 3c
       -0.052568898 0.030201523

layers.0.node_message_mlp.2.weight f4 [50, 50]
000000 8f c3 fb bd 0e d0 02 bc fa 6e 81 be 10 ca d6 3d
       -0.12293159 -0.007984174 -0.2527998 0.10487759
000010 bc 7f d5 3d a5 ef 50 bd 1f 3b d0 3c 18 7e 19 3d
       0.10424754 -0.051009793 0.025418816 0.037473768
000020 9c 28 0f bb b5 c0 34 3d 35 d0 9c bd 52 f9 68 bd
       -0.0021844273 0.044129092 -0.076569 -0.056878395
000030 f8 5e dd 3d 32 ff f7 bd c0 85 ca bd 57 cf 74 3c
       0.108091295 -0.121092215 -0.09888792 0.014942012
000040 20 83 a9 bd 23 4a 1e 3e f3 a9 17 bd 1d 77 8e 3d
       -0.08276963 0.15457968 -0.03702731 0.06956313
000050 24 a8 03 3d 2d 93 07 3e f9 ba 42 3d ef dd e6 3a
       0.032142773 0.13239737 0.047541592 0.0017613749
000060 5e d4 f4 3c c4 11 77 bd 0a 02 5d bd d2 a3 cf 3d
       0.02988642 -0.060319677 -0.053957023 0.10138668
000070 76 1f 23 3e 85 85 c0 3d 4d 69 0a bd f3 b2 f4 bd
       0.1592997 0.09400467 -0.03379183 -0.11948194
000080 58 26 cb bc 01 35 67 3c f8 3d 60 3c 79 8f f9 bd
       -0.024798557 0.014111758 0.0136866495 -0.12185568
000090 29 47 0f bd c5 b8 16 3d 6b 7e d9 3c d2 79 cb 3d
       -0.034979973 0.036797304 0.026549539 0.09935345
0000a0 aa 8c b5 3d 88 9e a4 3d dd 26 63 bd c6 90 00 3e
       0.0886472 0.0803805 -0.055456985 0.12555227
0000b0 ee 31 07 3e 64 b4 05 be 95 00 2e be 17 b6 98 bd
       0.1320264 -0.13057095 -0.1699241 -0.07456606
0000c0 bc e8 5c 3b db 08 44 be 45 73 a4 bc 92 26 70 bd
       0.0033708056 -0.19144003 -0.020074496 -0.058630534
0000d0 b3 c0 e5 3e 7b ea e5 bd a9 03 17 bd f8 6f 81 bd
       0.4487358 -0.11226364 -0.036868725 -0.063201845
0000e0 8b 46 32 3e 67 09 41 bd a8 08 6d 3b d2 3b ea 3d
       0.17409723 -0.047128107 0.003616849 0.11437191
0000f0 a8 9f 07 bd d1 a6 6f be 3a 31 9e bd bb 20 31 3c
       -0.033111244 -0.23403479 -0.07724233 0.010811026
000100 40 25 11 3e bf 2a c3 bd e2 4a 7e bd 19 d7 a7 3b
       0.14174366 -0.095296375 -0.062083133 0.005122077
000110 72 d8 d3 3c 33 ee 8d 3d b1 00 f7 bd 6a 47 06 be
       0.025860045 0.069301985 -0.12060679 -0.1311318
000120 58 8c 95 bd 13 4d 94 3d 06 91 f5 bd 48 d3 82 bc
       -0.07302159 0.07241263 -0.11990552 -0.015969887
000130 50 03 a5 3d b7 dd 00 3e ba c2 9e 3c 7f b8 86 3d
       0.080572724 0.12584578 0.019379962 0.065781586
000140 99 29 09 be ad cd ab 3d 45 0f 4f be b8 dd 35 3e
       -0.13394774 0.08388839 -0.20220669 0.1776036
000150 35 a1 98 bd 12 ea 1c bd 5c 10 eb bd de c5 bd bd
       -0.07452623 -0.038309164 -0.1147773 -0.09266256
000160 94 eb 99 3d 72 7e 92 3d f9 b7 e8 3a e1 77 b1 bc
       0.07515636 0.07153024 0.0017755023 -0.021663608
000170 eb 08 e1 bc 21 72 00 3e 61 d0 97 3d f6 2f 85 bd
       -0.027470073 0.12543537 0.07412792 -0.065032884
000180 cb b4 8f 3d 61 1a c0 bd d5 b3 b6 bd 05 4b 0d 3e
       0.070169054 -0.093800314 -0.08921019 0.13798149
000190 1d fa 35 3d 2e 41 a6 3d 11 c9 9f 3e fb df 07 bd
       0.04442798 0.08117901 0.3120809 -0.03317259
0001a0 11 0c 62 3d 99 62 13 3e 2f f2 06 bd f9 47 ad be
       0.05518729 0.14393081 -0.032945808 -0.33843973
0001b0 37 c4 b7 bd 77 e5 ae 3c e3 e8 0f 3e b2 69 10 be
       -0.08972972 0.021349652 0.14053683 -0.1410282
0001c0 4e 43 a3 3c 3e 92 35 be 94 94 e3 bc 7b a1 f4 3c
       0.019929554 -0.17731568 -0.027780809 0.029862156
0001d0 35 66 0a be fb 6c 69 3e 8e 70 1d be 07 61 b7 3c
       -0.13515551 0.22795479 -0.15374967 0.022385133
0001e0 4d 4d 3b bd a6 aa d1 3d 01 8e 82 bd b4 f0 af 3a
       -0.045728017 0.10237627 -0.06374741 0.0013423176
0001f0 de 2e fa bc fb 2f e0 bd 3c 0b 22 be 80 9c 86 3d
       -0.030539926 -0.109466515 -0.15824598 0.06572819
000200 73 b5 a9 be c8 5f 52 3d 03 17 56 bd 46 6a 02 3d
       -0.33146247 0.051360875 -0.05226804 0.03183963
000210 6c d5 5b be 3c 44 49 3d 04 6b 61 bb 8d f9 ef 3d
       -0.21468133 0.04913734 -0.0034396062 0.1171752
000220 9f 67 af be e9 d5 90 3d 20 ba 9f 3d 9a 82 04 3d
       -0.34258744 0.0707205 0.077991724 0.032351114
000230 21 9f 05 bd 94 86 ca bd f5 2f 22 be 2c c2 45 bd
       -0.03262246 -0.0988895 -0.15838607 -0.04828088
000240 dc c1 e9 3d 4a 8a ac bb fa 3e 67 3e 37 3b b6 bd
       0.11413929 -0.005265509 0.22582617 -0.08898013
000250 d2 29 98 bd 10 61 c3 3c 8b 57 22 3d 8a a5 0f be
       -0.074298516 0.023849994 0.03963427 -0.14027992
000260 ed ff 60 3e 1b 57 bb 3d 83 36 b7 3d 2b d9 68 bd
       0.21972628 0.091474734 0.08945944 -0.056847733
000270 86 7c 1d bc d9 7d 89 bd 58 55 4b 3d 18 ad 5d 3d
       -0.009612208 -0.06713457 0.049641937 0.054120153
000280 64 00 5b 3d 44 86 ad bd 54 68 fa bd 0d 5c 3c 3d
       0.05346717 -0.08472875 -0.1222693 0.045986224
000290 65 77 09 be 04 67 ec bc a8 05 a9 bd 20 94 3f 3e
       -0.13424452 -0.028857715 -0.08253032 0.18708849
0002a0 a4 ae d6 3d d5 29 cf 3d 9e ac 16 bd e4 a7 ab 3d
       0.10482529 0.10115401 -0.036785714 0.08381632
0002b0 56 2c 99 3d 08 05 c7 3c 2d 83 58 3d c0 82 d3 bd
       0.074791595 0.024294391 0.052859474 -0.10327673
0002c0 cc f3 0b 3d d9 58 ad bc cb b2 15 bd 4c b6 0b 3e
       0.03416805 -0.02116053 -0.036547463 0.1364376
0002d0 34 e6 85 3d 30 ab bc bd c5 7f d0 bd ad e9 07 3e
       0.065380484 -0.09212339 -0.1018062 0.13272734
0002e0 c4 08 d0 bd 04 ce 6d bd 67 1c 86 3c 23 b2 dd bd
       -0.10157922 -0.0580578 0.016370965 -0.108249925
0002f0 73 3b 31 bd 6a a1 27 be a6 5f 0e be e5 6d 3d 3d
       -0.043269586 -0.16370168 -0.13903674 0.04624738
000300 7c ec 86 bd 64 06 97 bc a2 4a a5 bc 97 0c ed 3c
       -0.065880746 -0.018435664 -0.02017719 0.028936667
000310 11 b0 a0 bd ac ce f4 bd 1d 23 c1 bd a3 58 1a bd
       -0.07846082 -0.11953482 -0.094305255 -0.037682187
000320 ef bd 42 bc c8 a1 42 3e a8 b5 80 be bd b1 06 3e
       -0.011886104 0.19007027 -0.25138593 0.1315374
000330 7e f9 cb bd 5e e6 66 bc ab 68 9e 3c 16 d7 4d 3d
       -0.09959696 -0.01409301 0.019337019 0.05025395
000340 05 d3 0f be 38 35 18 3e 68 70 6a 3d 61 1b 06 3e
       -0.14045341 0.14864051 0.057236105 0.13096382
000350 87 27 a5 3d 80 b9 63 3e 2e c1 ec 3d 32 05 c2 3d
       0.0806418 0.22238731 0.115602836 0.09473647
000360 89 d7 b5 bd 9d a4 07 be af 03 b8 3d 82 e5 c1 bd
       -0.08879001 -0.13246389 0.089850776 -0.09467603
000370 04 8f c5 bc 31 9c c8 bd 93 3a 21 bd a4 33 32 3e
       -0.024116047 -0.09795416 -0.0393625 0.17402512
000380 5e e4 0b 3c 66 22 c6 3d 96 e9 3b 3e ab 2c 58 3d
       0.008538334 0.0967453 0.18350825 0.052776974
000390 37 62 bd 3d 9f 11 7e 3c 1f d4 0c 3e cd 46 d3 bd
       0.092472486 0.015507131 0.13752793 -0.103162386
0003a0 54 dd be 3c ad db 1d be 9c c8 0c be 15 7e 56 3d
       0.023298897 -0.15415831 -0.13748401 0.052366335
0003b0 93 d8 34 3e 95 b3 83 3d 3d f1 49 3c 4a f1 39 3d
       0.17660742 0.06430737 0.012325582 0.045396127
0003c0 80 d9 7d 3d eb fb 10 3d fe d9 14 be 0c d9 09 3c
       0.061975002 0.035396498 -0.14536282 0.008413564
0003d0 76 3b c6 bd ba 3e 8c bd 19 37 7e be b1 57 a3 bc
       -0.0967931 -0.06847902 -0.24825706 -0.019939275
0003e0 6a 9d 2a 3d a8 f4 18 3d 6a 96 b1 3d 02 51 13 bc
       0.041654028 0.037342697 0.08671267 -0.008991482
0003f0 6c d3 aa be ff 3f a7 3d e0 3a c6 bb 41 7b 12 3e
       -0.33364427 0.08166503 -0.006049499 0.1430483

layers.0.node_message_mlp.2.bias f4 [50]
000000 cc 6b 7f 3d c4 e5 c6 3d 53 8c 03 be f8 40 cb 3d
       0.062358662 0.09711793 -0.12846498 0.09924501
000010 6b 22 d6 bd ef a7 43 be 18 f2 22 3e 3a 3d 7c bd
       -0.104557835 -0.1910703 0.15912664 -0.061581828
000020 ae df e3 bd d7 5a 14 be 53 61 33 3c fa a6 64 bd
       -0.11126648 -0.14487778 0.010948497 -0.055823304
000030 c2 53 ed bb 58 7c c7 3d fd 44 81 3d e6 f4 27 bd
       -0.0072426507 0.097405136 0.063119866 -0.041005038
000040 89 1f 13 bd 01 89 c2 3c 17 2c 8a 3c ae 66 68 be
       -0.035918746 0.02374697 0.016866727 -0.22695419
000050 75 64 05 be 7f 2d 8c 3a 85 53 8f 3b 20 9c 1f bc
       -0.13026603 0.0010694711 0.00437397 -0.009741813
000060 df 4d b3 bd 97 2c 8d 3c e4 2f c0 3c 62 28 f8 bc
       -0.08755087 0.017233176 0.023460336 -0.030292694
000070 06 68 fa 3d d7 31 27 be 74 c5 a2 bd d5 73 ac 3d
       0.12226872 -0.16327606 -0.079478174 0.08420531
000080 59 9e ad 3d 45 f1 97 bd 05 db 5a 3e 66 69 09 be
       0.08477468 -0.074190654 0.21372612 -0.13419113
000090 4a 97 c9 bc 3a 46 33 3d 1a 76 95 3c fd 81 83 3c
       -0.024608273 0.043768145 0.018244792 0.016053194
0000a0 13 49 b4 bd b8 52 12 bd 55 8d 5f 3d ed c1 ec 3c
       -0.08803 -0.035723418 0.054578144 0.028901065
0000b0 3a d9 78 3e 10 1f e9 bd 99 58 ce 3d ff f5 81 3d
       0.24301615 -0.11382878 0.100754924 0.06345748
0000c0 47 92 54 3d d0 62 a3 bd
       0.051897313 -0.07977831

layers.0.node_update_mlp.0.weight f4 [50, 150]
000000 09 46 a6 bd 88 26 fb bc 9a 86 4f 3d 1e 1e c8 bd
       -0.08118827 -0.030658022 0.050665475 -0.097713694
000010 94 ce e4 bc 37 d5 a2 bb 5d 44 0d 3d 05 c3 0a bb
       -0.027930535 -0.004969265 0.034489024 -0.002117337
000020 2a 54 b5 3d c8 e7 84 bd e2 33 1b bd 4c 19 5a bd
       0.08853944 -0.06489521 -0.037891276 -0.05324678
000030 e6 5d 8a 3d 08 3e 2d 3d bb 53 99 3d 36 f8 0b 3c
       0.06756191 0.042295486 0.074866734 0.008543065
000040 dd 0d 54 3c 71 71 d7 bd df 8c 2f 3c b7 ec f8 3c
       0.012942758 -0.10519684 0.010714739 0.030386312
000050 bf 35 d2 3c 29 0c ca 3b 3c d4 e3 bc 12 66 3f bd
       0.025660394 0.0061660004 -0.027811162 -0.0467282
000060 6a 09 b0 3d fc 25 5f 3d cd 50 82 bc 3b 1b 7d bc
       0.085955456 0.054479584 -0.01590767 -0.015448387
000070 55 85 8c 3d d0 7d 9b bc d7 88 51 bd ed 24 77 3c
       0.068613686 -0.01898089 -0.05115589 0.015084487
000080 27 c1 a3 3d 73 d0 a7 bc de 5c 0e 3d 33 7b 83 bb
       0.07995825 -0.020485139 0.034756534 -0.004012489
000090 f8 25 9d 3b 08 da cc 3d 6c 08 b2 bd c4 0d cf 3c
       0.004795786 0.10002524 -0.086930126 0.025275119
0000a0 ab 14 d3 bc 18 06 6b 3d 90 5b fd bd 54 25 c1 3d
       -0.025766691 0.05737886 -0.1237098 0.09430948
0000b0 26 c4 ab bd 3f 16 a0 3d 65 75 ef 3d a9 85 5f bd
       -0.08387022 0.07816743 0.11692313 -0.054570828
0000c0 f4 3a c5 bd 5a 5a 74 3c b3 0d e0 bd 90 e8 0e bb
       -0.09630385 0.01491412 -0.10940113 -0.0021806099
0000d0 4a a2 c0 3c a1 63 28 bd fa 7e 8a bc 37 cd c1 3b
       0.023514885 -0.04111064 -0.01690625 0.005914356
0000e0 52 6b c8 3c 13 58 09 bd 82 8b ff 3c 52 ff 7b bd
       0.024465237 -0.03353126 0.031194452 -0.06152279
0000f0 4a 12 9e 3d b6 67 22 3d 17 6a 83 bc 1b 03 1f bc
       0.07718332 0.039649688 -0.016041799 -0.00970533
000100 08 9a 25 bd 19 f6 25 3c f3 32 ba bc 50 05 83 bd
       -0.0404301 0.010129475 -0.022729373 -0.06397498
000110 1e ec d0 3d d4 74 b9 bd 04 ef ca bd d0 3f 73 bd
       0.10201286 -0.09055486 -0.0990887 -0.05938703
000120 7a 0c 0c bd 9f 32 74 bc 94 e6 da bc 11 21 2d bd
       -0.034191586 -0.014904647 -0.026721276 -0.042267863
000130 c6 5c 82 bd e7 61 99 bd a2 68 24 bd d0 e9 46 3c
       -0.063653514 -0.074893765 -0.040138848 0.012140706
000140 31 2b 68 3d bd 38 b9 3a eb 6e da bc 87 51 6d bd
       0.056681816 0.0014131289 -0.026664218 -0.05793908
000150 82 65 6e 3d 9c 69 57 bd 3a 88 93 3c 50 fb aa 3c
       0.058202274 -0.05259095 0.018009294 0.020871788
000160 ff 6f ec 3c 8a 50 ab 3c 52 de 3a 3d 8a f3 ad 3d
       0.028861998 0.020912427 0.045622177 0.08493717
000170 86 af 91 bd fd c4 4a 3c 7d 37 1f bc 85 50 16 bc
       -0.071135566 0.012376067 -0.009717819 -0.009174471
000180 91 7a ee 3c 78 6a ab bb 6f 93 cb bc 81 7c 1f bc
       0.029111179 -0.005231198 -0.024850575 -0.009734274
000190 18 1e 92 3d 4f 97 74 3d 9a 21 3f bd 7b 2a 93 bc
       0.07134646 0.05971461 -0.046662904 -0.017964592
0001a0 91 17 a2 bd d4 8f 44 3d dc 7c 87 3b 72 b8 8b bd
       -0.07914651 0.047988728 0.0041347574 -0.068222895
0001b0 36 98 5c 3c 73 98 8b bd bc 8d 9f 39 cc 98 a2 3d
       0.013464024 -0.06816187 0.00030432444 0.079393
0001c0 c2 06 4c 3d f8 ab b8 3b dd a4 9a 3d e4 93 70 3c
       0.049811132 0.0056357346 0.075509764 0.014683697
0001d0 a6 b7 34 3d 3b 25 c7 bc 54 5a fa bb f8 57 2d 3d
       0.044120453 -0.024309745 -0.0076401625 0.04232022
0001e0 cc d4 65 bd d1 fe b1 3c 3f 34 93 3d 72 8a 82 3d
       -0.056111142 0.021727951 0.071876995 0.063740626
0001f0 42 1e 26 bd 80 0f 11 bd 3d e2 88 3c 01 58 ce bc
       -0.0405562 -0.035415173 0.016709441 -0.025188448
000200 af 2a 8e bb ac a7 af 3c 56 5d 00 3d 29 0a e4 bc
       -0.0043385844 0.021442257 0.031339012 -0.027836876
000210 4b af 5a bc bb fc 49 bd 92 d4 85 bd 71 7a 5d 3d
       -0.013347457 -0.04931329 -0.06534685 0.054071847
000220 fe f3 a5 bd 7b 26 a0 3c 2b e1 bd 3c c0 27 60 3c
       -0.081031784 0.019549599 0.023178658 0.013681352
000230 ed dd 81 bc a2 00 8b 3d 7c 73 c8 3c 85 eb c7 3c
       -0.015852893 0.0678723 0.02446913 0.024404297
000240 58 c3 e1 3c 0d 88 74 3d a8 76 3e bd c2 52 3d bd
       0.027558967 0.05970006 -0.04649988 -0.046221502
000250 98 79 30 bd 9d 7f 19 3d 45 66 10 3e e3 de 88 3d
       -0.04308471 0.037475217 0.14101513 0.06683137
000260 7b 70 94 3d d4 7e ea 3d 8c 50 14 3e 2f 32 5c 3e
       0.072480164 0.11449972 0.14483851 0.21503519
000270 ac 8f 05 3e 14 97 f0 3d a6 9c 01 be aa 3c 89 3d
       0.13043088 0.11747566 -0.12657413 0.06701024
000280 b5 e7 3d be 4d 79 e4 bd 9f 14 c3 bd 29 fb 45 3e
       -0.1854542 -0.11155949 -0.095254175 0.19334091
000290 0e d6 d1 bc c5 14 5d 3d a3 e0 91 3d ef 83 9e bc
       -0.025614765 0.053974885 0.07122924 -0.01935002
0002a0 d2 c3 00 3e c5 5a 6c be 28 a7 08 3e f5 88 66 3c
       0.125747 -0.23081501 0.13345015 0.014070739
0002b0 8f 4c 3e bd c5 7b 37 3e ba 62 65 bd f8 bc 1e be
       -0.04645973 0.17918308 -0.056002356 -0.15501773
0002c0 bf 97 4d bd bd 22 6b 3d 10 e0 63 bd c4 3a b9 bd
       -0.050193544 0.057406176 -0.055633605 -0.09044412
0002d0 55 40 81 3d 6d e7 08 be 38 af 15 be 44 17 26 bd
       0.063110985 -0.13369532 -0.14617622 -0.04054953
0002e0 e6 30 96 3d 60 8a 30 be 9e 13 1f 3e a7 a4 5a bc
       0.073335454 -0.17240286 0.15534827 -0.01334492
0002f0 29 f7 08 3d e0 c3 e5 bc 16 5c 2f 3e 1d af 21 be
       0.033438835 -0.028047502 0.17124972 -0.15789457
000300 6d 23 1a 3e e8 50 b1 bd bd d5 0d 3e 58 47 2c bd
       0.15052576 -0.0865801 0.13851066 -0.042060226
000310 b0 30 ef bd 7c fa 28 3e 24 80 06 3e 27 f0 c7 bd
       -0.11679208 0.16501802 0.1313482 -0.09762602
000320 07 9b 8f bd 41 f0 62 3e 23 b0 93 3c 38 5a 52 3d
       -0.07011991 0.22161962 0.018028324 0.05135557
000330 07 ce 18 3d 18 bd 2c be 99 f2 ac bc 0d aa ed bd
       0.037305858 -0.16869009 -0.021111773 -0.116047
000340 a6 d6 16 bd 53 e0 6c be 83 cb f1 3c 26 b9 f3 3c
       -0.0368258 -0.23132448 0.029515987 0.029751372
000350 6f 17 91 bd 25 93 8c bc 22 f0 1e 3e ac 70 d8 bc
       -0.07084548 -0.017160008 0.15521291 -0.026420914
000360 83 1e 6d be e0 1e cc bb 26 e3 2c 3d 15 fb cd bc
       -0.2315617 -0.0062292665 0.042208813 -0.02514414
000370 70 fb 2d be ac c5 72 be 2e 47 ec bd 5e 9e 19 3c
       -0.16990447 -0.23708218 -0.11537014 0.009376137
000380 f5 17 3e be 46 4f cb 3b 19 bd 50 bc f6 be 0c 3c
       -0.18563826 0.0062045185 -0.012740397 0.0085904505
000390 f7 f9 31 bd 4d 9f a5 bc 28 08 95 39 9a 8c a3 bb
       -0.043451276 -0.020217562 0.00028425572 -0.0049911262
0003a0 17 d7 bd b8 af f6 5e bd a4 3a e6 3c 00 6b 3f 3c
       -9.052286e-05 -0.054434475 0.028104134 0.011683226
0003b0 65 12 99 bc 9e df 70 bc 02 67 cc 3d ea 20 b6 3d
       -0.018685529 -0.014701752 0.09980585 0.088929966
0003c0 c4 62 09 be a3 c9 92 bd 78 0b 14 3c 3e 91 e0 3c
       -0.13416582 -0.071673654 0.0090359375 0.027413007
0003d0 93 e2 98 3c 2a c4 04 bd 01 58 c1 3c 07 03 38 3e
       0.018662727 -0.03241364 0.023601534 0.17969905
0003e0 a5 5d 92 bd a1 28 ab 3d c3 1f 5e bb ab 88 22 3b
       -0.071467675 0.08357359 -0.0033893443 0.0024800699
0003f0 76 e1 27 3d ee ba 80 bd b2 e8 87 3d 87 dc 05 3c
       0.0409865 -0.06285654 0.0663618 0.008170254

layers.0.node_update_mlp.0.bias f4 [50]
000000 61 d7 46 bd db 6c 01 3e ec f7 62 bd 51 a3 b1 bd
       -0.048545245 0.12639181 -0.055412218 -0.08673728
000010 98 1f 9a bd 2d 89 11 be d6 23 93 bc 62 2d d7 bc
       -0.07525557 -0.14212485 -0.017961424 -0.026266757
000020 4a e6 bb bd d8 a2 d7 bd b8 34 f2 bd 98 37 c7 3c
       -0.091747835 -0.10529107 -0.118264616 0.024318501
000030 a3 68 89 3c b8 5f f9 3d 5a 3d 37 bd b5 36 05 bd
       0.016773527 0.1217646 -0.044736244 -0.032522876
000040 74 50 1f bd 02 b8 55 bd 65 5b 00 bd 92 2e 48 bd
       -0.038895085 -0.052177437 -0.03133716 -0.048872538
000050 1b f3 55 3d 17 38 13 bd f7 dd 4b 3d 7f c2 b8 bd
       0.052233797 -0.035942163 0.04977223 -0.09021472
000060 d7 53 9d 3d 17 ee 37 bd 80 72 ee 3c 93 96 92 3c
       0.07682007 -0.044904795 0.029107332 0.017894065
000070 45 20 de bd 50 5c 05 be 9d 31 11 3d 0b da fe bc
       -0.10845999 -0.13023496 0.035447706 -0.03110983
000080 82 35 06 3d 40 cf c4 bd e9 1c a9 bd 6f 0f 54 3d
       0.032765873 -0.09609842 -0.08257467 0.05177253
000090 b7 81 24 3d 8e 35 dd bd bc 61 b8 3c 12 4c 8a bd
       0.04016277 -0.1080123 0.02250754 -0.067527905
0000a0 ac 42 ea bd f7 bf ad bd ba 9e 70 3c b1 ea e2 3a
       -0.11438498 -0.0848388 0.014686281 0.0017312375
0000b0 ea 3c 52 bd 6e ce 00 be b4 9d 8a 3d 62 7c ec 3d
       -0.051327623 -0.12578747 0.06768361 0.11547162
0000c0 de ee 19 bd c3 17 46 3d
       -0.037581317 0.048362505

layers.0.node_update_mlp.2.weight f4 [50, 50]
000000 a6 ec 52 3d 8b e8 b5 3d 42 a4 a5 bd 45 4e bb bd
       0.051495217 0.08882245 -0.0808797 -0.09145788
000010 f1 99 f5 3d 3f 40 3a be 55 06 8e bc d4 ff 98 3d
       0.119922526 -0.1818857 -0.017337004 0.0747067
000020 c7 8e 91 bb a7 54 30 bc 0d 05 99 3d f2 57 be bc
       -0.004442069 -0.01076237 0.074716665 -0.023235295
000030 c9 11 1b 3d 6b 61 eb bc 58 3f 84 bd 10 4f c2 bd
       0.037858758 -0.028732976 -0.06457394 -0.09487736
000040 db ab 81 3d 0f 20 b8 3d 2e d4 e0 bd b6 22 5e 3d
       0.06331607 0.0899049 -0.1097797 0.05423232
000050 cd 7f b6 3d 46 d0 8f 3c 56 9f 0b bd 8d 9e 98 3d
       0.08911095 0.017555367 -0.0340875 0.07452116
000060 8b 3a 56 bd ae ff a3 bd fc 2b 2f 3d e4 55 cb 3d
       -0.052301925 -0.080077514 0.042766556 0.09928492
000070 f7 b8 c8 bc 26 2b a2 bd 7d a6 17 3e 11 a1 c2 3c
       -0.02450226 -0.07918386 0.14809604 0.023758443
000080 e9 c1 d9 bd 8d ba d4 3c 8e 68 96 3d af 26 4e bc
       -0.106326886 0.02596786 0.07344161 -0.012582465
000090 c8 b4 f9 bc 0e 14 e1 3d c1 fb 28 bc d9 55 01 bf
       -0.030481711 0.10990153 -0.010313929 -0.5052162
0000a0 23 8d 1a bd e7 84 f9 bd 4e 29 87 bd 58 38 83 3d
       -0.037732255 -0.12183552 -0.06599675 0.06407231
0000b0 ca a0 a6 bc 06 35 16 bd 1a 18 b6 bc a0 89 4e bc
       -0.020340342 -0.03667166 -0.02222829 -0.012606055
0000c0 2e a9 d0 bd 0a ec c6 3c 08 3a 25 3d a9 37 53 bd
       -0.101885185 0.024282474 0.040338546 -0.051566754
0000d0 b8 5e 1b bc 31 24 56 3d 80 7c 69 3c a7 bc 17 3b
       -0.009483032 0.05228061 0.0142508745 0.0023153217
0000e0 1c 4a 74 3d 59 4b e7 bc 84 6e 15 3d 17 e5 1d be
       0.05964099 -0.02823417 0.03648235 -0.15419422
0000f0 48 91 c7 3d 90 96 0c 3e de 2b 81 3c 8f c8 44 3e
       0.09744507 0.1372931 0.015767988 0.19217132
000100 62 ec d2 3d d8 00 ee bd fb fd c0 3d 2c bc 49 bc
       0.10298993 -0.11621255 0.09423443 -0.01231293
000110 68 df 6c 3b 41 a5 63 bb ba b5 e6 bc 5d 63 1b be
       0.0036143903 -0.003473595 -0.028162826 -0.15174623
000120 19 0b 50 3e 3c 81 0b be 7a 8d 7b 3d 06 5d 64 bd
       0.20316733 -0.13623518 0.06141422 -0.055752777
000130 19 b4 a9 bb 54 8e 10 3e fb 4f ee bc ab 52 83 3d
       -0.00517894 0.14116794 -0.029090872 0.06412252
000140 95 46 49 3e 86 dc c7 3d e1 0b 01 3b 7a 73 92 3b
       0.19655831 0.097588584 0.0019690918 0.0044693323
000150 65 9b 62 bc 4a 00 11 3e 7d ff b7 bd f4 3b 75 3c
       -0.013830994 0.14160267 -0.089842774 0.014967907
000160 d7 8b f0 bd 06 e1 85 be 3e 66 ae 3d f6 0c 7b bc
       -0.11745422 -0.26148242 0.08515595 -0.015322914
000170 ab ab b3 bd df cb 4d bd 4d 5c b0 3d 8a f8 83 3d
       -0.087729774 -0.050243255 0.08611355 0.064438894
000180 e0 9d 6b bd 5c 51 d7 bd b5 72 38 bc c0 66 dc bd
       -0.05752361 -0.10513565 -0.011257817 -0.107617855
000190 66 12 b8 3d df 19 af 3d c8 c3 e4 3d 73 bf 2a bc
       0.08987884 0.085498564 0.11170155 -0.010421622
0001a0 01 0d ef 3c 1e f3 8b bb 62 20 54 3d 77 97 b2 bc
       0.029181005 -0.004270925 0.051788695 -0.02180074
0001b0 fc 23 ad 3b e7 35 ad bd d0 c4 00 bd 9b 11 f0 3d
       0.0052838307 -0.08457547 -0.031437695 0.11722108
0001c0 9c ff 6f bd 23 b8 9f 3d 81 1d 78 bc d1 6b 95 bd
       -0.058593377 0.07798793 -0.015143753 -0.07295955
0001d0 55 49 e4 bd 4a ec ac bd 70 82 a6 3c 1b 60 7c bd
       -0.111467995 -0.08443506 0.02032587 -0.06161509
0001e0 e7 77 73 bd 20 24 96 bc e2 cf 49 3d 7c c2 89 3d
       -0.05944052 -0.018327773 0.049270518 0.06726548
0001f0 6b ae b6 3d c0 ec fd bc 2e 2b 08 3d c3 14 bc 39
       0.08919986 -0.03099668 0.033244304 0.00035873623
000200 dd 0f a2 3d 5e 4c 5b bd f7 ec 1c 3c c4 31 3b bb
       0.07913182 -0.053539626 0.009577981 -0.0028563598
000210 f8 8b 86 3d bd e6 1f bd 70 52 40 bd 47 7d e8 3d
       0.06569666 -0.03903841 -0.04695362 0.1135202
000220 c5 ba 84 3d 45 72 90 3d 25 f3 15 3e 49 8f a4 be
       0.06480936 0.07053045 0.14643534 -0.32140568
000230 61 27 d2 bd 57 56 8a bd 90 81 00 be a1 95 de bd
       -0.10261417 -0.06754749 -0.12549424 -0.10868383
000240 6b c4 18 3c b5 a6 51 bd a8 75 ab 3d ea 77 08 be
       0.009324173 -0.051184375 0.083720505 -0.13326994
000250 29 3e 78 3d 02 c7 19 3e 0c 11 42 3a a1 ef 2a bc
       0.060606156 0.15017322 0.0007403053 -0.010433109
000260 35 c7 dd bd c0 82 71 3d ca 93 fa bd de 6a 1c 3d
       -0.10829011 0.058962584 -0.1223522 0.038187854
000270 ac 0d bf bd a1 31 ca bd fd 68 11 3d 46 1e 4f bd
       -0.093287796 -0.09872747 0.035500515 -0.05056598
000280 3f d6 25 3d e7 e1 d9 bd 0f 89 80 3c 27 15 ef 3d
       0.040487524 -0.106387906 0.015690355 0.11673956
000290 75 49 48 3e 93 57 ef bd 07 25 c1 3d 8b 4b 42 3d
       0.19559272 -0.11686625 0.094308905 0.047435325
0002a0 f2 b1 8e 3e 91 7a b8 3c 9a 8f 2f 3d b9 22 f1 bd
       0.27870136 0.022519382 0.04286156 -0.11774201
0002b0 ab a1 e7 bd a1 a3 94 3d 9a ae 78 3d 27 c4 91 bc
       -0.113101326 0.07257772 0.060713388 -0.017793728
0002c0 e1 3d 0c be 3a 8e da 3d 52 5b d3 bd ab 2a 9b 3d
       -0.1369548 0.10671659 -0.10320152 0.07576498
0002d0 f6 ac e1 bc d4 0f d2 bd 8e 5a ab bd 96 dc 89 3d
       -0.027548295 -0.10256925 -0.08366881 0.067315266
0002e0 ba 8e 0f 3d cf ac 98 bd 33 b9 5c bd 21 f4 ce bd
       0.035048224 -0.074548356 -0.053887557 -0.10105158
0002f0 f8 4b 7e 3d b0 e5 54 be 14 72 bf bd c9 45 a5 bc
       0.06208417 -0.20790744 -0.093479306 -0.020174878
000300 b7 70 c1 3b 6d 63 bc 3d 7a 01 c0 bd b5 91 0a be
       0.0059033292 0.091986515 -0.09375282 -0.13532145
000310 de ec 6c bd 59 f9 81 3d 68 3a 32 bc 2f c0 b6 bd
       -0.05784308 0.063463874 -0.010878183 -0.08923375
000320 1b 6a 04 bc 19 8f 7d bd 58 58 84 3e 1f 92 dd bd
       -0.008081938 -0.061904047 0.2584865 -0.10818886
000330 ba 1b d0 3d 24 b8 02 3e 61 5d 37 3d c8 c2 f2 bd
       0.101615384 0.12765557 0.044766787 -0.11853558
000340 8a 0a 3a be 8b 4e f6 bc 21 74 e4 3d f7 ba 63 bd
       -0.18168083 -0.03006675 0.11154962 -0.055598225
000350 24 48 94 bd e7 e6 20 be 2f e9 00 3e c8 fd 19 bd
       -0.07240322 -0.15713082 0.12588952 -0.03759554
000360 80 10 92 3d 1b ff bb 3b d7 c7 b1 bc d7 76 c8 bc
       0.071320534 0.005737198 -0.021701736 -0.02447073
000370 a6 ce d3 bd 6b d7 bd 3c f2 6a 4b be 7c 92 a6 bb
       -0.103421494 0.023174008 -0.19865015 -0.0050833803
000380 45 8e c2 bc 6d 8a 81 bd b1 05 61 bd 61 a9 9f bd
       -0.02374948 -0.06325231 -0.05493707 -0.07795978
000390 4e 9f 1c be 6e 7f 63 bd 9a ed a9 bd d5 1a cb 3a
       -0.15295145 -0.05554145 -0.08297272 0.0015495667
0003a0 53 88 59 bd 01 cb 93 bd 80 7c b8 3d af 19 5e 3d
       -0.053108525 -0.07216454 0.090081215 0.054223713
0003b0 d5 0a 01 3e c7 4e ca 3d 02 4e 77 bd 0f ab 89 3e
       0.12601788 0.09878307 -0.06037713 0.2688832
0003c0 53 2f 1c 3e d2 a9 2c be 0a 38 76 be d3 8d c0 3d
       0.15252428 -0.16861656 -0.24044815 0.09402051
0003d0 76 30 a2 3d da 82 32 3e 8c de 80 3d e2 1e 30 be
       0.079193994 0.17432728 0.062924474 -0.17199281
0003e0 12 85 10 3e d4 64 70 3d bf d0 b2 3b a0 c7 40 3e
       0.14113262 0.058689907 0.0054570134 0.18826151
0003f0 86 62 08 3e 65 78 f5 bd 71 a6 7f 3d 9c 75 ac 3d
       0.13318834 -0.11985854 0.06241459 0.0842087

layers.0.node_update_mlp.2.bias f4 [50]
000000 a6 37 99 3c 97 db a7 bd 54 b3 1d 3d f8 24 00 be
       0.018703293 -0.0819618 0.0385011 -0.12514102
000010 74 67 a8 bd 13 fb d6 bd 2c 47 0b 3d 02 ce cd bd
       -0.08222857 -0.10497107 0.03400342 -0.100490585
000020 59 60 39 bd 5a ee d0 bc 54 e0 7b bd 46 1a bb bd
       -0.0452579 -0.02550428 -0.061493233 -0.09135871
000030 95 58 ad 3d 29 58 1f 3e bd e6 fa 3d 26 d6 b0 bd
       0.08464161 0.15560974 0.12251041 -0.086345956
000040 88 ac 7f be af e4 2c be 82 94 07 3d a2 06 93 3d
       -0.24968159 -0.16884111 0.033100612 0.071789995
000050 aa 9f ad 3d 94 f6 97 bd 61 85 ab bc 84 64 70 be
       0.08477719 -0.07420078 -0.020937623 -0.23475844
000060 11 cf 11 bc 9f a8 f1 3d a6 ea 61 3d d8 89 6c be
       -0.008899466 0.1179974 0.05515542 -0.23099458
000070 5f 71 1d bd 5d e4 2d bd 81 21 25 3e 90 48 cc bd
       -0.038438197 -0.042454112 0.16126062 -0.09974778
000080 5d 63 72 3c 4e bc 33 3e 9f c0 5b 3e af 5e 42 3e
       0.014794198 0.17552301 0.21460198 0.18981431
000090 60 c1 1f bc 5f d4 80 bd c4 7c 14 be df 07 94 3d
       -0.009750694 -0.062905066 -0.1450072 0.07228064
0000a0 af 46 33 bc 65 72 3a 3e df e3 87 bc 4c da 10 3e
       -0.010942145 0.182077 -0.01658815 0.14145774
0000b0 4a 01 82 3d 52 3a c3 3d 22 01 00 3e d8 73 8f bd
       0.06347902 0.09532608 0.12500432 -0.07004517
0000c0 40 6a b4 bd 54 9f 69 bc
       -0.08809328 -0.014259178
