fruitygnn_model2.pth (torch, 693080 bytes, 68 tensors)

global_init f4 [1, 50]
-1.6963736 0.17924179 0.6204775 1.1438454 0.13978845 0.20827322 0.21934582 1.3364849
-0.23378545 1.0381941 -0.85573417 -0.33059075 0.44371936 -1.263547 0.604688 -0.07752691
-2.11236 -0.23398411 -0.24670401 0.011595507 0.081859075 -0.4724638 -1.0469289 -2.4901977
-0.2094062 1.0878758 0.16999803 -0.0013201335 0.6954147 0.01038158 1.6932498 2.034882
-0.38230002 0.86968017 -0.49973282 -0.40438628 0.47447747 -0.7395625 0.56115663 -0.95595735
-0.863567 -2.1748366 1.9095905 -0.34235296 0.016520247 0.46699542 -1.2322884 -1.5225761
-0.00092791236 0.36620978
00000000: c522 d9bf 298b 373e 9dd7 1e3f 8769 923f
00000010: b424 0f3e 9345 553e 319c 603e f011 ab3f
00000020: 7465 6fbe 8be3 843f 6511 5bbf 3143 a9be
00000030: 2f2f e33e e8bb a1bf d5cc 1a3f 6ec6 9ebd
00000040: e830 07c0 8899 6fbe fa9f 7cbe 15fb 3d3c
00000050: bba5 a73d c6e6 f1be c401 86bf 665f 1fc0
00000060: 946e 56be 843f 8b3f f713 2e3e 5408 adba
00000070: b306 323f 8117 2a3c 69bc d83f 823b 0240
00000080: d4bc c3be 5ca3 5e3f fbdc ffbe b80b cfbe
00000090: b6ee f23e f853 3dbf f6a7 0f3f 9fb9 74bf
000000a0: ba12 5dbf 8630 0bc0 766d f43f e348 afbe
000000b0: 7855 873c 061a ef3e a0bb 9dbf c6e3 c2bf
000000c0: 253f 73ba d97f bb3e

node_emb.weight f4 [101, 50]
-0.3945914 0.20464553 2.4103842 1.6432953 1.6077033 0.99942446 -0.93066895 0.39840618
0.44076204 -0.3502759 -0.2899294 -2.4605954 -0.41453627 -0.7307385 -1.7889328 -0.49273056
0.08762927 -0.86847 -1.3708632 -0.00340086 0.7110054 -1.5756212 0.21075797 0.6636055
-0.44332084 -0.48950815 -0.69038606 -1.8120316 -0.8372631 0.8481277 -0.12110345 -1.69917
-1.7320759 0.38899878 -2.2070453 -1.8191789 0.3709372 -0.20738871 1.4277202 -1.5465103
1.0824724 0.8177596 0.28512028 -0.8129701 0.4294987 -0.74142104 -0.00039869334 -0.31301972
0.13227357 0.3080154 0.33566323 0.5794441 -1.0479065 0.4036481 0.7367133 -1.6732934
-1.5848906 -0.6689443 -1.468895 -0.41953602 0.03330859 -1.1869689 0.63814986 -0.022245152
-1.1182097 0.6326181 1.8058977 -1.2498662 -1.0073476 -0.7434402 1.5940872 -0.60731333
1.6054835 -0.2687633 -0.0043371827 -0.19916828 0.22216585 0.989974 -1.3861078 -0.950509
-0.21468358 0.050305597 -0.058786824 0.6471885 -0.80171347 1.975039 -0.77222145 1.0220654
-0.68162096 1.1514766 -0.30644247 1.7565389 -0.7405818 -1.4031781 -0.822779 -0.07687785
0.71167284 -0.85554206 -0.18432444 0.27973896 1.5533917 -0.9690916 0.2827106 -1.1452957
-1.7321335 1.7411371 -0.100810714 -0.1719373 0.8684251 0.015115008 -0.75989085 -0.54742205
1.4252415 1.2332332 0.31113607 -1.2202322 0.16133243 0.38854027 0.04510878 -1.3478354
0.06759298 0.120220214 -0.71202266 1.2506503 0.5138686 -0.4895028 1.7198346 0.87347597
-0.86034346 -2.1921754 -0.6256614 1.0693271 -0.56537604 1.274333 -0.1919999 -0.47222257
-0.07494731 1.8785766 -0.043021563 -0.23816209 -0.09374419 0.41001177 0.17983633 2.0875225
0.9786211 1.2510899 -1.3504646 0.8026278 1.8047869 2.1389282 -0.5599647 0.91647196
-0.7271777 -0.40083975 -0.04004923 -1.5118735 -0.5624783 0.77275115 -0.032202814 0.4808269
0.2587652 0.36513284 -0.77690375 -1.3193599 -0.33567685 -0.49843118 -0.4108333 -1.1307471
0.105980046 -0.9510983 2.1865795 -0.702458 1.646284 1.5824208 0.7816248 -1.1475301
0.17813158 -1.3943808 1.3597369 -0.46668097 -0.17162432 0.41618457 0.9684193 -0.5349381
-1.9373709 0.83722544 0.020573994 -0.88813376 -0.6366393 -1.7603871 1.0776006 0.116785325
1.083085 0.84098035 -0.7625418 1.2502264 -0.83846337 1.3880107 -0.959381 -0.1217808
-0.6413429 -1.0463462 0.936049 0.7311297 0.26432458 -0.40749517 0.68147665 0.31703827
0.1300058 1.0517617 -1.8143989 -0.5780713 -0.7125327 -0.18428564 -1.216495 0.9772444
-0.33594057 -0.86490214 -0.08879138 0.16680072 1.5382807 -1.7034189 0.7642385 0.52268916
-0.7665435 -1.1709368 -0.7530033 -2.0211263 -1.0893636 -0.34174988 3.1399047 0.32660395
2.0819604 -0.021048948 -0.29478192 1.9059961 -0.12431453 1.450013 -0.26299125 0.23314379
-0.63632804 0.18430327 -0.032992158 0.9775064 -0.56832826 0.27993232 0.48555285 1.570183
-0.25436613 -1.1836506 0.14445385 0.7231692 -0.96544385 -1.8141881 0.9359538 -1.294674
00000000: e207 cabe 998e 513e bc43 1a40 8057 d23f
00000010: 39c9 cd3f 48da 7f3f 5240 6ebf e5fb cb3e
00000020: 90ab e13e 5d57 b3be a071 94be 657a 1dc0
00000030: 193e d4be ae11 3bbf c0fb e4bf 2e47 fcbe
00000040: fa76 b33d 0d54 5ebf 7278 afbf f6e0 5ebb
00000050: 7304 363f f5ad c9bf f0d0 573e 0de2 293f
00000060: f3fa e2be d0a0 fabe 24bd 30bf a7f0 e7bf
00000070: e056 56bf e61e 593f 1605 f8bd 677e d9bf
00000080: aab4 ddbf d92a c73e 3b40 0dc0 dbda e8bf
00000090: 7beb bd3e b55d 54be 89bf b63f 0df4 c5bf
000000a0: 758e 8a3f b158 513f 49fb 913e cf1e 50bf
000000b0: 41e7 db3e c5cd 3dbf b707 d1b9 1f44 a0be
000000c0: b972 073e 32b4 9d3e 0ddc ab3e 7356 143f
000000d0: cd21 86bf f7aa ce3e 3e99 3c3f 7a2e d6bf
000000e0: b2dd cabf ef3f 2bbf c004 bcbf 6dcd d6be
000000f0: 976e 083d 99ee 97bf ca5d 233f 773b b6bc
00000100: 7f21 8fbf 43f3 213f a827 e73f 9efb 9fbf
00000110: c4f0 80bf 1952 3ebf 0d0b cc3f e378 1bbf
00000120: 7c80 cd3f 589b 89be ed1e 8ebb c5f2 4bbe
00000130: 727f 633e f06e 7d3f fb6b b1bf 8f54 73bf
00000140: 03d6 5bbe 3e0d 4e3d 74ca 70bd 25ae 253f
00000150: 183d 4dbf 14ce fc3f 4eb0 45bf 0ad3 823f
00000160: b67e 2ebf 9663 933f 07e6 9cbe 44d6 e03f
00000170: c596 3dbf 579b b3bf a5a1 52bf 2272 9dbd
00000180: 3130 363f ce04 5bbf 8cbf 3cbe f239 8f3e
00000190: 8ad5 c63f 6316 78bf 72bf 903e 0d99 92bf
000001a0: 8db6 ddbf 95dd de3f d975 cebd 5510 30be
000001b0: 1b51 5e3f f0a4 773c 3588 42bf da23 0cbf
000001c0: 506e b63f 96da 9d3f 3a4d 9f3e 9230 9cbf
000001d0: 5434 253e c0ee c63e fcc3 383d df85 acbf
000001e0: 306e 8a3d 0436 f63d 1e47 36bf 4f15 a03f
000001f0: e48c 033f 1ca0 fabe 8a23 dc3f 1f9c 5f3f
00000200: 783f 5cbf 9a4c 0cc0 582b 20bf b6df 883f
00000210: 7cbc 10bf 581d a33f 9f9b 44be 28c7 f1be
00000220: fa7d 99bd 3375 f03f 6137 30bd c3e0 73be
00000230: f4fc bfbd 10ed d13e 0427 383e f899 0540
00000240: ea86 7a3f b723 a03f 06dc acbf 0479 4d3f
00000250: 4203 e73f 33e4 0840 d959 0fbf e89d 6a3f
00000260: 5128 3abf de3a cdbe a90a 24bd 1285 c1bf
00000270: 94fe 0fbf 05d3 453f 19e7 03bd f22e f63e
00000280: df7c 843e b1f2 ba3e 2ae3 46bf c9e0 a8bf
00000290: d6dd abbe 5f32 ffbe be58 d2be 52bc 90bf
000002a0: 110c d93d 2e7b 73bf ebf0 0b40 4ad4 33bf
000002b0: 6fb9 d23f c48c ca3f 9018 483f 44e2 92bf
000002c0: 2068 363e 127b b2bf dc0b ae3f cff0 eebe
000002d0: 49be 2fbe 2516 d53e 54ea 773f b4f1 08bf
000002e0: c5fb f7bf 6854 563f cb8a a83c bc5c 63bf
000002f0: cbfa 22bf 5d54 e1bf d1ee 893f 252d ef3d
00000300: 87a2 8a3f 7d4a 573f f035 43bf 6b07 a03f
00000310: 89a5 56bf 56aa b13f fe99 75bf 3668 f9bd
00000320: 0c2f 24bf acee 85bf e8a0 6f3f 512b 3b3f
00000330: 8d55 873e 35a3 d0be 4175 2e3f d752 a23e
00000340: 3e20 053e 21a0 863f 393e e8bf 7bfc 13bf
00000350: 8b68 36bf 60b5 3cbe 1cb6 9bbf b02c 7a3f
00000360: 6700 acbe 3a6a 5dbf 41d8 b5bd cfcd 2a3e
00000370: 62e6 c43f a109 dabf 22a5 433f f5ce 053f
00000380: 323c 44bf 42e1 95bf d3c4 40bf 225a 01c0
00000390: 4470 8bbf d7f9 aebe 33f4 4840 a238 a73e
000003a0: d73e 0540 d86e acbc a8ed 96be aef7 f33f
000003b0: 9e98 febd 079a b93f caa6 86be 3fbd 6e3e
000003c0: 65e6 22bf ffb9 3c3e c922 07bd dc3d 7a3f
000003d0: f67d 11bf 4a53 8f3e 629a f83e c2fb c83f
000003e0: 473c 82be dd81 97bf b6eb 133e 9e21 393f
000003f0: 5427 77bf 5137 e8bf ab9a 6f3f e1b7 a5bf

edge_emb.weight f4 [5, 50]
0.55996186 0.13082637 0.89537257 -0.14852236 -0.38838056 -0.6573445 1.4694858 0.4234323
-0.4530113 0.052682888 0.91428876 0.29463387 0.09980229 -0.081412375 -0.31541228 0.256931
2.159957 -0.610645 1.029173 -1.2741381 -0.27753976 1.8243152 -0.7409909 -0.31380975
0.2477883 1.2299397 -1.8673517 0.2030117 -1.3407774 0.07497899 -1.6955985 1.1889155
-0.6336068 1.4589598 -0.49827263 1.056955 -0.13419954 -0.87621987 -1.3221208 0.11363896
-0.15111122 -0.49493608 1.1658238 1.6906604 -0.27311397 -1.952893 -0.68303025 -0.81831104
0.95937324 -2.7584362 0.68378615 0.46986467 0.19634897 -0.34590226 0.16461627 0.3971242
-0.47151333 1.2933862 0.5450966 -0.99575967 0.5002231 1.363886 -0.4321155 1.1847582
1.2626705 -0.77061695 -0.058426633 1.9309869 -1.6214211 -0.61114067 1.0627934 -0.9181142
-0.21979615 1.0513383 -0.21238214 -0.7382793 -0.75913554 -1.3645477 -0.65225166 0.18475112
0.29100674 0.61338335 0.035825178 -0.05669827 -1.2429302 0.06324483 1.6225197 -0.2072077
0.3176254 0.14725003 0.46055123 0.12542194 -0.23359814 -0.8077915 -0.5387666 -1.3150253
0.76268774 1.8257506 -0.0921374 -0.56919247 -0.55586785 -0.23205289 0.6137678 1.4202224
-2.195985 -1.009297 1.822405 0.61508006 -0.72012055 0.21310404 -0.07657369 0.20276114
-1.3815675 0.15110712 0.047693897 0.57751244 0.4005302 0.09180999 -0.64307606 -0.5359219
0.86385524 -0.26105917 0.27490208 0.93725914 -0.28087053 0.11943818 0.1486308 1.0331459
0.15701255 -1.4812225 -0.74754626 -0.5787915 -1.3818405 0.38484704 -0.9330308 -0.9336193
-1.6335951 -1.2961195 0.62260807 -1.3697584 0.3536943 -0.72765744 0.2602002 0.13211794
-0.84532166 -0.8541691 -0.5235575 -0.31763786 -0.108175375 -1.1821076 0.62445897 0.2877207
0.20506345 0.78381956 -0.52707875 -0.216829 -0.026536604 -0.8523375 -0.61111253 -0.92662185
0.040051438 1.1990693 0.7788772 0.4499414 -0.32535288 0.15541272 1.3544128 0.3426518
-0.51149017 0.8246692 -0.48180327 0.45613775 -0.69547284 -0.50701857 -1.4701519 1.2387391
1.2702807 -0.17513928 -0.6922451 -0.06359876 -0.2468036 -0.66129446 -1.1621125 -0.44715098
-0.05161069 1.0179293 -0.0019789774 1.2786998 0.110839255 1.0677779 -1.1933914 0.23819941
-1.4918058 -0.2368969 -0.06308152 -0.6538149 -1.8550156 -0.7584739 1.2048755 1.5917324
-0.26960698 -0.093335226 -0.852373 -1.338447 -0.24132715 -1.71038 2.8179603 -0.30016512
0.96481025 1.678526 0.95631385 -0.37602657 0.10197326 0.64466345 0.5106209 -0.9409964
0.5261761 2.4766521 1.6377183 -0.99404085 1.158662 0.972095 -1.2917467 -1.2565585
-1.2611951 -0.7923119 0.71006477 -0.7082766 -0.024659822 -1.6235143 0.47015196 0.06444502
0.34660205 -0.54076713 -0.9920184 -0.24285777 -0.35843882 -1.4797256 -1.3588657 0.36014876
0.2430271 1.4446777 -0.0966575 -0.3715862 -0.61870855 -0.13918649 -1.8775389 -2.023301
-1.1198354 0.39436388
00000000: a959 0f3f 59f7 053e 2337 653f 3f16 18be
00000010: d1d9 c6be bb47 28bf 1c18 bc3f 1ecc d83e
00000020: 19f1 e7be 03ca 573d d40e 6a3f 40da 963e
00000030: 2565 cc3d 88bb a6bd b87d a1be 768c 833e
00000040: bc3c 0a40 3b53 1cbf f1bb 833f f516 a3bf
00000050: b119 8ebe 2983 e93f 94b1 3dbf acab a0be
00000060: 37bc 7d3e aa6e 9d3f 6105 efbf 4de2 4f3e
00000070: 989e abbf 968e 993d 5f09 d9bf 622e 983f
00000080: 0e34 22bf 32bf ba3f 971d ffbe 4d4a 873f
00000090: 9b6b 09be f24f 60bf 413b a9bf 8bbb e83d
000000a0: e6bc 1abe 4368 fdbe b739 953f 8f67 d83f
000000b0: 98d5 8bbe 66f8 f9bf 12db 2ebf d57c 51bf
000000c0: 7c99 753f 388a 30c0 9c0c 2f3f 1a92 f03e
000000d0: b40f 493e 1a1a b1be 2b91 283e dd53 cb3e
000000e0: 326a f1be ae8d a53f 738b 0b3f 1bea 7ebf
000000f0: 9f0e 003f d193 ae3f 3e3e ddbe 28a6 973f
00000100: 309f a13f 2747 45bf c450 6fbd 942a f73f
00000110: ba8a cfbf b773 1cbf 9d09 883f 8809 6bbf
00000120: 3e12 61be 4192 863f b47a 59be dfff 3cbf
00000130: b556 42bf 80a9 aebf f7f9 26bf 662f 3d3e
00000140: d6fe 943e b106 1d3f 6cbd 123d 723c 68bd
00000150: 5618 9fbf 8186 813d baae cf3f 412e 54be
00000160: cc9f a23e b6c8 163e 5fcd eb3e 9c6e 003e
00000170: 5a34 6fbe 6ccb 4ebf 9cec 09bf c052 a8bf
00000180: 813f 433f 32b2 e93f 88b2 bcbd 99b6 11bf
00000190: 5b4d 0ebf 469f 6dbe e31f 1d3f d9c9 b53f
000001a0: 058b 0cc0 a530 81bf 9144 e93f e375 1d3f
000001b0: d259 38bf f237 5a3e abd2 9cbd 9ea0 4f3e
000001c0: 34d7 b0bf d3bb 1a3e ad5a 433d dbd7 133f
000001d0: 4b12 cd3e e006 bc3d a2a0 24bf 2d32 09bf
000001e0: 9e25 5d3f 8ca9 85be f7bf 8c3e 37f0 6f3f
000001f0: 43ce 8fbe 019c f43d ac32 183e 203e 843f
00000200: e6c7 203e b398 bdbf 315f 3fbf ae2b 14bf
00000210: 26e0 b0bf ac0a c53e 1bdb 6ebf ad01 6fbf
00000220: a519 d1bf 3ee7 a5bf 3e63 1f3f 3e54 afbf
00000230: 6b17 b53e c247 3abf f638 853e ed49 073e
00000240: 0067 58bf d3aa 5abf dd07 06bf 6ea1 a2be
00000250: 0d8b ddbd 4d4f 97bf 8bdc 1f3f 2150 933e
00000260: 27fc 513e 66a8 483f a2ee 06bf 6c08 5ebe
00000270: 4b63 d9bc ca32 5abf df71 1cbf 1737 6dbf
00000280: fa0c 243d 1a7b 993f 7f64 473f b85e e63e
00000290: a794 a6be 8324 1f3e 665d ad3f 0f70 af3e
000002a0: 05f1 02bf 851d 533f ebae f6be e38a e93e
000002b0: 820a 32bf f8cb 01bf f02d bcbf 018f 9e3f
000002c0: 8f98 a23f b657 33be fa36 31bf 1140 82bd
000002d0: 15ba 7cbe 984a 29bf 1ac0 94bf f9f0 e4be
000002e0: bb65 53bd 824b 823f bbb1 01bb 6fac a33f
000002f0: b1ff e23d f2ac 883f 0dc1 98bf 8cea 733e
00000300: 7ef3 bebf 1a95 72be e230 81bd 6a60 27bf
00000310: 2771 edbf 582b 42bf 5c39 9a3f e3bd cb3f
00000320: ed09 8abe 8a26 bfbd 1e35 5abf 3b52 abbf
00000330: 771e 77be bbed dabf 7659 3440 3eaf 99be
00000340: cefd 763f f1d9 d63f fcd0 743f 8e86 c0be
00000350: 5bd7 d03d aa08 253f 0db8 023f 24e5 70bf
00000360: 7ab3 063f 7881 1e40 c1a0 d13f 7679 7ebf
00000370: 094f 943f 38db 783f f557 a5bf e9d6 a0bf
00000380: d76e a1bf f4d4 4abf cec6 353f 9e51 35bf
00000390: 6503 cabc 51cf cfbf c2b7 f03e c0fb 833d
000003a0: d375 b13e b76f 0abf ebf4 7dbf b5af 78be
000003b0: 4b85 b7be a667 bdbf 50ef adbf 6b65 b83e
000003c0: 19dc 783e 33eb b83f 5ef4 c5bd 8c40 bebe
000003d0: af63 1ebf e786 0ebe 3253 f0bf c37d 01c0
000003e0: c456 8fbf 10ea c93e

layers.0.node_msg_mlp.0.weight f4 [50, 100]
-0.0397256 0.077319145 -0.07188882 0.04782151 -0.020512309 0.06390606 -0.036046684 0.036844973
0.044824652 0.118336275 -0.030084472 0.11135855 -0.059287377 -0.085385665 -0.010954521 -0.12379666
-0.059440877 -0.0067407913 0.1181559 -0.03943691 0.083807185 0.050755054 0.023776744 0.08878352
0.048156813 -0.01790355 -0.099001095 0.043393597 -0.04873572 0.046579875 -0.04412882 0.058716793
0.07144917 0.009904358 -0.02663945 0.019003902 -0.04759475 -0.021034125 -0.07151815 -0.0077020703
-0.0511199 0.04273152 0.021283995 0.08716835 0.017059263 0.026006078 0.007833931 0.05526632
0.08267496 0.065700874 -0.045199726 -0.08245686 -0.051818546 0.016213523 -0.07762764 -0.032630447
-0.030558841 -0.01664474 0.06928293 0.0033976792 0.008304162 -0.07174285 0.031773105 0.041679017
-0.08894878 -0.027965704 0.07617538 -0.112744994 -0.06103793 -0.02346921 0.033348046 -0.02373769
0.018036406 0.0515019 0.10002629 0.1133152 0.032486048 0.022554606 0.06580558 -0.11953131
-0.062198225 -0.10282421 -0.0606651 -0.031180916 0.04476625 -0.055306125 0.023016468 -0.036801107
-0.1056971 0.020282978 0.018143581 -0.0043125786 -0.050207116 0.10048877 0.014449192 0.062372785
-0.024173535 -0.029116811 0.0044861934 0.12234986 -0.03932916 -0.074826285 0.046925373 0.05449939
0.0052814577 0.03230625 -0.038771763 0.059942357 0.0001940415 0.07774344 -0.08242545 -0.032183576
-0.016256 -0.04216224 0.02918562 0.04508308 -0.06160502 0.02461482 0.08058372 -0.029522715
-0.0038100807 0.07772832 -0.09305388 0.09959628 0.07120588 0.06986628 0.038163453 -0.059480563
0.08618824 0.08578312 -0.083352245 0.030699184 0.083519675 -0.025217794 0.08783387 0.059468076
0.078388795 -0.095684834 0.059128746 -0.036105145 -0.0061890124 -0.04966062 -0.065632716 0.06271903
0.057259243 0.06614953 0.027280169 0.07639012 0.03829833 0.07778894 0.056575693 0.04126424
0.035666507 -0.0475682 -0.030360423 -0.056316208 -0.08892037 -0.07120414 -0.005005881 0.0745922
-0.023695786 0.045850817 -0.0073263934 -0.012140404 -0.08037128 -0.06133551 -0.11698092 -0.09305868
0.028910967 0.05581207 0.02400038 -0.04897786 -0.007768236 0.07327596 0.061997607 0.03746476
-0.06036329 -0.088209875 -0.05041786 0.030037768 -0.06823722 -0.0032317855 0.034626074 0.04127881
-0.038935706 0.08575746 0.05564492 0.020683993 0.06616889 0.08333769 -0.018033233 -0.028598053
0.0749196 0.07990358 0.081783876 -0.08234255 -0.031812493 -0.07797189 0.029624484 -0.049038023
0.06251834 -0.11780252 -0.06324987 -0.026588961 0.07602756 -0.087024584 0.056830253 -0.08733889
0.08967976 -0.013335774 0.046486504 -0.058871318 0.016222669 -0.10150461 0.047057476 -0.0104201455
-0.02012954 -0.026662685 -0.009638611 -0.09523289 0.06395668 0.01257887 0.10768621 0.0063561415
-0.026776956 0.09704901 -0.020569589 0.07816201 0.098854564 0.030334713 -0.109592974 -0.025582245
-0.019804338 0.021889526 -0.036459807 0.004400286 -0.034188196 -0.0023442889 -0.075206116 0.008873726
-0.03325107 -0.10435811 0.07029171 0.0059809373 -0.03634994 0.058998 0.06461083 0.060237113
-0.04478627 -0.05752147 -0.091419436 0.03855584 -0.13158195 -0.0006906313 0.15998259 -0.0459652
00000000: 50b7 22bd 8059 9e3d 723a 93bd 7de0 433d
00000010: 6e09 a8bc 2ee1 823d b0a5 13bd c1ea 163d
00000020: 0e9a 373d 4a5a f23d b673 f6bc f40f e43d
00000030: 52d7 72bd aede aebd 977a 33bc 1a89 fdbd
00000040: 4778 73bd dbe1 dcbb b8fb f13d 9988 21bd
00000050: 1aa3 ab3d 88e4 4f3d 72c7 c23c 22d4 b53d
00000060: 1440 453d 77aa 92bc 16c1 cabd 7cbd 313d
00000070: 1b9f 47bd 8aca 3e3d 6cc0 34bd 0581 703d
00000080: f153 923d e345 223c fa3a dabc 12ae 9b3c
00000090: b6f2 42bd c24f acbc 1c78 92bd a661 fcbb
000000a0: 1a63 51bd 3f07 2f3d c65b ae3c 5285 b23d
000000b0: debf 8b3c b30a d53c e359 003c f05e 623d
000000c0: 7d51 a93d 2e8e 863d 5923 39bd 24df a8bd
000000d0: af3f 54bd 39d2 843c 3dfb 9ebd 81a7 05bd
000000e0: 8956 fabc 8d5a 88bc 35e4 8d3d 99ab 5e3b
000000f0: 2e0e 083c eaed 92bd 8424 023d 9eb7 2a3d
00000100: c72a b6bd 5518 e5bc d601 9c3d d9e6 e6bd
00000110: e902 7abd 8042 c0bc f697 083d 8b75 c2bc
00000120: 16c1 933c a8f3 523d 95da cc3d cd11 e83d
00000130: 1710 053d 70c4 b83c 13c5 863d d5cc f4bd
00000140: 91c3 7ebd 8095 d2bd f87b 78bd 1f6f ffbc
00000150: d15c 373d ad88 62bd 088d bc3c c2bc 16bd
00000160: b977 d8bd 7d28 a63c d9a1 943c 8850 8dbb
00000170: faa5 4dbd 0ecd cd3d 4ebc 6c3c 9b7a 7f3d
00000180: 9407 c6bc 6186 eebc eb00 933b 9092 fa3d
00000190: 9d17 21bd 863e 99bd d234 403d c13a 5f3d
000001a0: 1410 ad3b 8f53 043d 24cf 1ebd 1e86 753d
000001b0: 9e77 4b39 f437 9f3d adce a8bd edd2 03bd
000001c0: 4e2b 85bc 50b2 2cbd ae16 ef3c 09a9 383d
000001d0: 8c55 7cbd 05a5 c93c 1409 a53d 9fd9 f1bc
000001e0: 8cb2 79bb 0730 9f3d 0893 bebd 22f9 cb3d
000001f0: 63d4 913d 0d16 8f3d 4851 1c3d e4a1 73bd
00000200: 7683 b03d 0faf af3d 95b4 aabd db7c fb3c
00000210: 5d0c ab3d 8c95 cebc 3ee2 b33d cc94 733d
00000220: 4e8a a03d 69f6 c3bd fc30 723d fde2 13bd
00000230: 33cd cabb ef68 4bbd 726a 86bd d672 803d
00000240: ab88 6a3d 6879 873d a97a df3c 6c72 9c3d
00000250: b6de 1c3d cf4f 9f3d eabb 673d b104 293d
00000260: 0b17 123d dfd6 42bd 6cb6 f8bc d3ab 66bd
00000270: e21b b6bd 7ad3 91bd 6008 a4bb ccc3 983d
00000280: aa1d c2bc 11ce 3b3d 3e12 f0bb 8ce8 46bc
00000290: b399 a4bd f23a 7bbd b193 efbd 8d95 bebd
000002a0: b1d6 ec3c 329b 643d 729c c43c 029d 48bd
000002b0: b08c febb b511 963d 34f1 7d3d a674 193d
000002c0: 7f3f 77bd 61a7 b4bd f582 4ebd c411 f63c
000002d0: f5bf 8bbd 5dcc 53bb 12d4 0d3d f813 293d
000002e0: 0c7b 1fbd 9ba1 af3d edeb 633d 7a71 a93c
000002f0: 8e83 873d f3ac aa3d 6eba 93bc 7746 eabc
00000300: 726f 993d 7da4 a33d 4e7e a73d 36a3 a8bd
00000310: d14d 02bd baaf 9fbd 0caf f23c 18dc 48bd
00000320: 9e09 803d 7342 f1bd 2689 81bd 18d1 d9bc
00000330: 56b4 9b3d f239 b2bd d7c6 683d bbde b2bd
00000340: 06aa b73d 4a7e 5abc a268 3e3d 0d23 71bd
00000350: 67e5 843c a6e1 cfbd 57bf 403d 42b9 2abc
00000360: b4e6 a4bc b46b dabc 44eb 1dbc 7609 c3bd
00000370: b8fb 823d 9b17 4e3c 968a dc3d 2e47 d03b
00000380: 595b dbbc a2c1 c63d 8e81 a8bc 6713 a03d
00000390: 4374 ca3d 8180 f83c 4872 e0bd db91 d1bc
000003a0: b53c a2bc aa51 b33c e156 15bd 4630 903b
000003b0: ec08 0cbd a4a2 19bb aa05 9abd 1b63 113c
000003c0: 4632 08bd b4b9 d5bd 1af5 8f3d bdfb c33b
000003d0: ade3 14bd e3a7 713d af52 843d 31bb 763d
000003e0: cf71 37bd a29b 6bbd 1d3a bbbd baec 1d3d
000003f0: 6bbd 06be 7b0b 35ba 7ad2 233e 0146 3cbd

layers.0.node_msg_mlp.0.bias f4 [50]
0.062618315 0.08233064 -0.0054632174 -0.08400151 0.07699233 0.023634518 -0.06984251 -0.06796381
-0.08074971 0.0065349126 0.042379677 -0.13905157 -0.07016911 -0.014336846 0.065357186 -0.10788804
0.029340226 -0.06585684 0.105208755 0.0608305 0.043750513 -0.03275864 -0.0925483 -0.098985545
-0.046869684 -0.06632239 0.043802172 0.006299164 -0.009105745 0.0069823316 -0.05904331 0.020991627
0.045691717 -0.0030875413 -0.050966643 0.002016737 0.00510019 -0.018787757 0.054628573 -0.06552593
-0.037900187 0.06607835 -0.10158784 0.010977245 -0.035230696 0.0033702205 0.11191645 -0.03417025
-0.071311854 0.06514457
00000000: 083e 803d f79c a83d ca04 b3bb fc08 acbd
00000010: 28ae 9d3d 2d9d c13c 9709 8fbd 9c30 8bbd
00000020: 1b60 a5bd d222 d63b 5096 2d3d 8963 0ebe
00000030: d3b4 8fbd 17e5 6abc fdd9 853d 68f4 dcbd
00000040: ea5a f03c f3df 86bd b077 d73d 6729 793d
00000050: bd33 333d ec2d 06bd f789 bdbd efb8 cabd
00000060: 6dfa 3fbd 09d4 87bd e869 333d 3869 ce3b
00000070: 4330 15bc 0bcc e43b 66d7 71bd a2f6 ab3c
00000080: 3d27 3b3d 5958 4abb 66c2 50bd 3b2b 043b
00000090: 7f1f a73b c8e8 99bc 36c2 5f3d 7532 86bd
000000a0: 3a3d 1bbd 1654 873d 490d d0bd e7d9 333c
000000b0: 104e 10bd ebde 5c3b 7434 e53d 1bf6 0bbd
000000c0: f30b 92bd 846a 853d

layers.0.node_msg_mlp.2.weight f4 [50, 50]
0.07124282 -0.025449147 0.09931282 -0.09970516 0.08329791 0.08901345 0.08586268 -0.1137509
-0.030277127 -0.014752551 -0.08928398 -0.008160779 -0.029525138 0.055163503 -0.08342101 0.10025915
-0.007328204 -0.059568647 -0.029917669 -0.056496117 -0.003006288 -0.017603246 0.10761828 -0.0042062593
-0.072015814 -0.056532495 -0.01583131 -0.11807919 -0.0023513762 0.0272087 -0.04530608 0.14627351
0.041662525 0.04305428 -0.07874754 0.14017561 -0.004258803 -0.010709318 0.14775422 -0.061307684
-0.07085441 0.11907224 0.07739399 -0.051908355 -0.09664718 -0.11501802 -0.10291044 -0.117653824
-0.0396289 -0.09419451 0.08677071 -0.045530297 -0.07964724 0.061250042 0.0636094 -0.05597013
-0.15583429 0.093935646 -0.025185842 -0.40130487 0.13124885 0.02842396 0.024279822 -0.116958395
-0.0954032 -0.030297989 -0.044688668 -0.07262353 -0.05761749 -0.12365343 -0.06748464 -0.16185197
0.18209165 -0.096596554 0.044683702 0.07478517 -0.089320704 0.13834502 0.12516604 -0.08042646
-0.09185905 -0.01682942 0.025632368 0.030478606 0.15073311 -0.05195905 -0.12481599 -0.060536884
-0.089653604 -0.036263596 -0.015117662 0.18833904 -0.03127115 0.06143283 0.043386202 -0.000108036
0.24491146 0.04230644 -0.075988084 0.08179735 0.045691527 0.08803454 -0.15601669 -0.18923898
-0.12859735 -0.14134681 -0.2049063 0.15790512 -0.14018539 -0.3552022 0.06456074 -0.049262755
-0.1056143 -0.055871576 0.108930916 -0.03225086 -0.027147425 0.112639 -0.03833102 0.11885975
0.0631725 -0.30491415 -0.022550877 0.06692123 -0.0029631888 0.099088855 0.061164744 -0.0068767304
-0.019353304 0.09818215 -0.19035466 0.057913456 -0.02934103 -0.045022547 0.08588493 -0.106151275
0.2039628 -0.056735083 -0.09722122 0.13993475 -0.13887124 -0.0518771 -0.038883395 -0.06197505
-0.091245875 -0.17629683 0.18428326 0.14333536 -0.13349779 -0.008340989 -0.12106325 0.020356266
-0.12545028 -0.04906094 -0.096030794 0.044243596 -0.039297618 0.04512363 -0.13594894 -0.0026161773
-0.11828719 0.05202596 -0.11968422 0.10272415 -0.07789199 -0.075865746 -0.014452168 0.098891936
0.06609512 -0.1078231 -0.09938265 0.01805361 0.061731193 0.13532571 -0.08426772 -0.19715424
0.074912176 -0.15490887 0.24658231 0.11497065 0.16833073 0.13843812 -0.10444371 0.0037935257
-0.13522623 0.060496997 -0.043605756 0.014299978 0.11116137 -0.04003946 0.07225367 -0.054294106
-0.1154718 -0.0386112 0.0896043 -0.0019306265 -0.0023156318 -0.09020877 -0.076742135 -0.06337993
0.0967568 -0.0013449719 -0.04309161 -0.06339592 -0.018178605 -0.12602428 -0.019784043 0.11046086
0.009884391 -0.123278186 -0.01973466 -0.065613 -0.13397248 0.027707046 0.14908971 0.1473225
0.024052432 0.092621215 0.021584438 0.081857294 -0.06391014 -0.17327642 0.17866948 -0.18785731
0.11511045 0.12935996 0.09851299 -0.0111728115 0.016457727 -0.023346044 0.089708775 -0.14777936
0.0070446297 -0.14899346 -0.0718036 -0.050250787 0.062411677 0.1150509 -0.0032797132 -0.04890926
0.09872103 0.22206354 0.11789565 0.08098563 -0.08327582 0.06950281 0.12643021 -0.06572099
0.024768101 -0.013838578 -0.09017494 -0.14409775 -0.123464346 -0.03198407 -0.034333706 -0.19289595
00000000: c1e7 913d bb7a d0bc 8564 cb3d 3832 ccbd
00000010: 1898 aa3d af4c b63d c6d8 af3d 3bf6 e8bd
00000020: bd07 f8bc afb4 71bc 85da b6bd cab4 05bc
00000030: b4de f1bc 20f3 613d a2d8 aabd ab54 cd3d
00000040: 6e21 f0bb 41fe 73bd e615 f5bc 7968 67bd
00000050: 2505 45bb af34 90bc f966 dc3d a9d4 89bb
00000060: 077d 93bd 9e8e 67bd aab0 81bc 81d3 f1bd
00000070: 8c19 1abb c8e4 de3c de92 39bd b9c8 153e
00000080: 53a6 2a3d af59 303d 6446 a1bd 328a 0f3e
00000090: 6e8d 8bbb 2376 2fbc e24c 173e c41d 7bbd
000000a0: 1e1c 91bd 26dc f33d bd80 9e3d db9d 54bd
000000b0: f5ee c5bd 918e ebbd b5c2 d2bd 7df4 f0bd
000000c0: ea51 22bd 0de9 c0bd d8b4 b13d fa7d 3abd
000000d0: 181e a3bd 53e1 7a3d a545 823d ef40 65bd
000000e0: 0693 1fbe 5561 c03d 8a52 cebc d577 cdbe
000000f0: 1966 063e 5dd9 e83c 7ae6 c63c e287 efbd
00000100: c162 c3bd 7d33 f8bc 770b 37bd a5bb 94bd
00000110: 5100 6cbd 023e fdbd 6335 8abd 86bc 25be
00000120: 3c76 3a3e 6ad4 c5bd 4206 373d f828 993d
00000130: c6ed b6bd 51aa 0d3e 872b 003e a1b6 a4bd
00000140: 9920 bcbd dadd 89bc f9fa d13c 45ae f93c
00000150: c859 1a3e 03d3 54bd 879f ffbd 86f5 77bd
00000160: 4f9c b7bd 2389 14bd 12b0 77bc f3db 403e
00000170: 2d16 00bd fea0 7b3d bbb5 313d 6391 e2b8
00000180: 12ca 7a3e 8549 2d3d a49f 9bbd 5e85 a73d
00000190: 0a27 3b3d 744b b43d d7c2 1fbe ddc7 41be
000001a0: 06af 03be 38bd 10be f5d2 51be e1b1 213e
000001b0: c28c 0fbe 10dd b5be 6c38 843d bec7 49bd
000001c0: 4f4c d8bd 98d9 64bd 2c17 df3d 7a19 04bd
000001d0: 4764 debc 47af e63d fd00 1dbd be6c f33d
000001e0: 9560 813d b51d 9cbe 9ebc b8bc ff0d 893d
000001f0: 0f32 42bb 19ef ca3d e287 7a3d 3256 e1bb
00000200: d28a 9ebc b913 c93d 55ec 42be a936 6d3d
00000210: 9a5c f0bc 9069 38bd 70e4 af3d d765 d9bd
00000220: a0db 503e 0c63 68bd eb1b c7bd 0e4b 0f3e
00000230: 4334 0ebe 157d 54bd 3244 1fbd 8dd9 7dbd
00000240: 1edf babd 2887 34be c0b4 3c3e 81c6 123e
00000250: a5b3 08be a5a8 08bc 02f0 f7bd 2fc2 a63c
00000260: 0a76 00be 20f4 48bd cbab c4bd c638 353d
00000270: 8af6 20bd 8ed3 383d 3336 0bbe 2c74 2bbb
00000280: 8e40 f2bd 2c19 553d 001d f5bd 0a61 d23d
00000290: d685 9fbd 805f 9bbd c9c8 6cbc db87 ca3d
000002a0: e15c 873d 5cd2 dcbd 2189 cbbd 2ae5 933c
000002b0: d9d9 7c3d d392 0a3e 8e94 acbd cde2 49be
000002c0: 8e6b 993d 6ea0 1ebe 1380 7c3e bb75 eb3d
000002d0: e45e 2c3e b9c2 0d3e 95e6 d5bd cd9c 783b
000002e0: bf78 0abe b3cb 773d f39b 32bd 744a 6a3c
000002f0: 93a8 e33d 6b00 24bd bbf9 933d 7f63 5ebd
00000300: 7b7c ecbd c726 1ebd 7682 b73d 130d fdba
00000310: dbc1 17bb 60bf b8bd fb2a 9dbd 56cd 81bd
00000320: 6e28 c63d c549 b0ba d480 30bd b8d5 81bd
00000330: 4ceb 94bc 820c 01be 2512 a2bc 4e39 e23d
00000340: 24f2 213c 4679 fcbd 95aa a1bc 1c60 86bd
00000350: 1530 09be e3f9 e23c f9aa 183e b6db 163e
00000360: 9b09 c53c 31b0 bd3d d9d1 b03c cca4 a73d
00000370: 52e3 82bd 606f 31be 22f5 363e ab5d 40be
00000380: 07bf eb3d f076 043e 2ec1 c93d 2b0e 37bc
00000390: 5bd2 863c 3440 bfbc 3cb9 b73d 7953 17be
000003a0: a3d6 e63b be91 18be c40d 93bd c5d3 4dbd
000003b0: 63a3 7f3d ce9f eb3d 75f0 56bb 1455 48bd
000003c0: 402e ca3d a064 633e 4673 f13d cbdb a53d
000003d0: 838c aabd 7d57 8e3d ec76 013e ba98 86bd
000003e0: 79e6 ca3c 34bb 62bc a4ad b8bd 5c8e 13be
000003f0: e0da fcbd ba01 03bd 80a1 0cbd 8486 45be

layers.0.node_msg_mlp.2.bias f4 [50]
0.046107195 0.09311873 0.009118891 0.047454923 -0.081015706 0.0610232 0.09932356 0.11306038
-0.027466508 -0.121992126 -0.029182138 0.0050532515 0.07735097 -0.0917443 -0.14508758 -0.0005570509
-0.050117645 0.166689 -0.049487285 0.06689731 -0.0009553965 -0.09810763 -0.058788154 0.09675034
-0.03711322 0.109085605 -0.14590909 0.08022975 0.13186657 0.019106956 0.034324206 0.13708325
0.10959204 0.040214244 0.012212218 -0.018423859 0.08016763 0.11610082 -0.101806015 -0.036449682
-0.009924249 -0.1240243 0.08732804 -0.05205447 0.021243159 0.1714555 -0.099539556 0.004429636
-0.023703093 0.05653532
00000000: e6da 3c3d 08b5 be3d 6767 153c 1860 423d
00000010: 90eb a5bd 77f3 793d 276a cb3d 338c e73d
00000020: 7101 e1bc 02d7 f9bd 610f efbc bf95 a53b
00000030: 2f6a 9e3d 70e4 bbbd d791 14be 0e07 12ba
00000040: 2948 4dbd 85b0 2a3e 2eb3 4abd 7501 893d
00000050: 9373 7aba a7ec c8bd d9cb 70bd 0b25 c63d
00000060: 0804 18bd 4668 df3d 3169 15be 7f4f a43d
00000070: 0808 073e 3186 9c3c 8a97 0c3d 8d5f 0c3e
00000080: cb71 e03d b1b7 243d c115 483c a2ed 96bc
00000090: ed2e a43d 44c6 ed3d ac7f d0bd 434c 15bd
000000a0: 5199 22bc 7400 febd 0bd9 b23d 1137 55bd
000000b0: 2206 ae3c 0892 2f3e 65db cbbd 7b26 913b
000000c0: fd2c c2bc 9491 673d

layers.0.node_update_mlp.0.weight f4 [50, 150]
0.00019997894 -0.1955377 -0.11609465 -0.17113534 0.024387496 -0.032045502 0.0060281926 0.106903106
0.018735124 -0.1359059 -0.0039275913 0.10342769 -0.10366848 -0.09221564 -0.06424947 -0.0061291987
0.07466044 0.07433063 0.0013183979 0.19558938 -0.13927034 -0.05200632 0.0113557 0.12680846
-0.0052835266 -0.1000319 0.023146246 -0.061251167 -0.048557047 0.06242329 -0.09469192 0.115779586
0.01925838 0.050961934 -0.14660846 -0.024095584 0.16215038 -0.037180237 -0.046727225 0.02877408
-0.1369365 0.0040237117 0.0007298008 -0.03044738 -0.020995736 0.10709393 -0.026371412 0.14410445
-0.062302306 -0.124827206 0.012542608 -0.09219209 -0.17400815 0.04958344 -0.15556426 -0.17499389
0.05500803 -0.040375922 0.026693938 -0.117554 -0.05460822 0.0024006544 -0.008012645 0.091895096
-0.035792243 -0.10026409 -0.08556815 -0.05849169 -0.10977637 0.16446614 0.14081873 -0.060414128
-0.062120903 0.049627002 0.048746947 0.04325217 -0.013901108 -0.04005573 -0.0739748 0.104600064
0.00613729 0.08389593 -0.050254676 0.06759103 -0.1965399 0.008398464 -0.11318722 0.03394824
-0.07514704 0.082247995 0.043891605 0.0520833 -0.051589694 0.037889063 -0.0384661 0.05428477
-0.10859576 0.007426166 0.08803455 0.04709419 -0.07773978 0.012117445 -0.07901308 0.030278785
0.05972867 0.06184188 -0.056169175 -0.046969436 -0.06000206 0.07465368 -0.0020663901 -0.026151493
0.040764768 0.00808322 -0.07721214 -0.07857447 0.0651997 -0.020606477 0.0600129 -0.0062627075
-0.048904598 0.016347613 -0.029722463 0.048523955 0.04368822 -0.08198911 -0.06839553 0.009394257
0.00857079 -0.049375147 -0.036819927 0.040038995 0.078778245 -0.06969831 0.015087918 0.0349675
0.04114127 -0.07605518 -0.016023798 0.043064192 -0.04697891 -0.05192873 -0.008378173 -0.0538015
0.07579003 -0.027311994 -0.011319033 -0.053406674 -0.015144603 0.007086571 0.040207133 0.035212893
-0.008920556 -0.07400711 -0.06983218 0.06894695 0.005998828 -0.05947636 0.0699174 -0.06933259
-0.0052081863 -0.0070833173 -0.03202877 -0.024006883 0.005101601 0.010035136 0.0065958803 -0.0028876392
0.008572802 0.035045773 -0.027755605 -0.0734695 -0.04625723 0.020126726 0.042139158 0.064130545
-0.07687799 -0.048462793 0.041673116 0.015769841 0.029012263 -0.04591795 0.014103209 0.035462257
0.08263042 0.02617764 -0.048850156 0.013526644 0.047995694 -0.06414112 0.007959366 -0.063019
0.0361596 0.038667582 0.045454647 -0.049729172 0.04368752 -0.06633787 -0.030291226 0.015325785
0.0054349015 0.006495837 -0.023943802 0.017038692 -0.010835879 0.01717709 0.002060005 -0.06834631
0.023494452 -0.08051574 0.027825763 -0.04032358 0.046609692 0.024365077 0.036896136 0.012813041
0.024127584 0.05466693 -0.045918312 -0.063425705 0.045133736 0.018855508 -0.0054960367 -0.035125915
0.03233866 -0.032251153 -0.034138016 0.07358715 -0.05736863 -0.01066744 -0.07936069 0.026502432
-0.019779228 0.06451997 -0.036700692 -0.06368479 0.025879355 -0.009723957 -0.06595688 -0.066591606
0.03450792 0.00055328204 0.027880931 -0.056107488 0.013282414 0.04091549 0.060936976 0.0467893
0.034894932 0.02260377 0.024641277 0.06821421 -0.07314453 -0.046806123 -0.012081694 0.0024396493
00000000: 70b1 5139 093b 48be 08c3 edbd 1a3e 2fbe
00000010: 49c8 c73c 2542 03bd 2588 c53b 04f0 da3d
00000020: 677a 993c eb2a 0bbe 06b3 80bb e6d1 d33d
00000030: 2450 d4bd 8edb bcbd 3a95 83bd 72d7 c8bb
00000040: 93e7 983d a83a 983d 18ce ac3a 9548 483e
00000050: e29c 0ebe 9404 55bd 420d 3a3c 14da 013e
00000060: 6f21 adbb 86dd ccbd 329d bd3c 81e2 7abd
00000070: c1e3 46bd 90af 7f3d d6ed c1bd d91d ed3d
00000080: c0c3 9d3c 76bd 503d 8720 16be 1a64 c5bc
00000090: c00a 263e 4e4a 18bd 0c65 3fbd 9fb7 eb3c
000000a0: 1539 0cbe 57d9 833b 1a50 3f3a c96c f9bc
000000b0: 40ff abbc 1054 db3d dc08 d8bc 1e90 133e
000000c0: b430 7fbd 68a5 ffbd 837f 4d3c 35cf bcbd
000000d0: 312f 32be 0118 4b3d 3d4c 1fbe 9931 33be
000000e0: 1a50 613d 3961 25bd 3fad da3c 27c0 f0bd
000000f0: deac 5fbd 4c54 1d3b 7847 03bc 7f33 bc3d
00000100: e39a 12bd 4257 cdbd 5b3e afbd fb94 6fbd
00000110: 6fd2 e0bd d069 283e c932 103e ce74 77bd
00000120: 7d72 7ebd af45 4b3d e1aa 473d 3029 313d
00000130: 79c1 63bc 7a11 24bd 1a80 97bd 8f38 d63d
00000140: 521b c93b a1d1 ab3d d9d7 4dbd 2a6d 8a3d
00000150: c141 49be b699 093c b4ce e7bd 4f0d 0b3d
00000160: b1e6 99bd a371 a83d afc7 333d 4c55 553d
00000170: b74f 53bd 9031 1b3d a18e 1dbd b559 5e3d
00000180: 7467 debd 3257 f33b 754b b43d d6e5 403d
00000190: 0936 9fbd 3f88 463c 9cd1 a1bd 370b f83c
000001a0: 0da6 743d e94d 7d3d a611 66bd 0663 40bd
000001b0: b8c4 75bd 07e4 983d 466c 07bb a83b d6bc
000001c0: f5f8 263d 7b6f 043c 6621 9ebd a7eb a0bd
000001d0: 6c87 853d eace a8bc 16d0 753d 6637 cdbb
000001e0: 3050 48bd 6eeb 853c 867c f3bc 0ec1 463d
000001f0: 6bf2 323d e8e9 a7bd f512 8cbd 5fea 193c
00000200: 806c 0c3c 983d 4abd 7ed0 16bd eeff 233d
00000210: 7d56 a13d fdbd 8ebd 5133 773c 153a 0f3d
00000220: c083 283d d1c2 9bbd 5744 83bc 1464 303d
00000230: f56c 40bd 38b3 54bd 9b44 09bc f65e 5cbd
00000240: ce37 9b3d 67bd dfbc 7773 39bc f5c0 5abd
00000250: 1221 78bc 7736 e83b 3cb0 243d 653b 103d
00000260: 8627 12bc 0a91 97bd 2d04 8fbd 0f34 8d3d
00000270: d191 c43b 7c9d 73bd db30 8f3d 3ffe 8dbd
00000280: 6fa9 aabb 2c1b e8bb 9930 03bd 15aa c4bc
00000290: 552b a73b 696a 243c 4122 d83b 8c3e 3dbb
000002a0: f074 0c3c 288c 0f3d b95f e3bc 2d77 96bd
000002b0: 3978 3dbd cee0 a43c 1c9a 2c3d e056 833d
000002c0: 3572 9dbd ec80 46bd 6eb1 2a3d c12f 813c
000002d0: 20ab ed3c 7614 3cbd 2511 673c df40 113d
000002e0: 233a a93d 7d72 d63c 1a17 48bd db9e 5d3c
000002f0: 2297 443d 6b5c 83bd 0068 023c 1b10 81bd
00000300: 171c 143d e661 1e3d a72e 3a3d d1b0 4bbd
00000310: aff1 323d 26dc 87bd 4e25 f8bc 0019 7b3c
00000320: 4217 b23b 08db d43b cb25 c4bc ba94 8b3c
00000330: f888 31bc f8b6 8c3c 2601 073b 26f9 8bbd
00000340: 7077 c03c 70e5 a4bd dbf2 e33c 572a 25bd
00000350: cee9 3e3d 4599 c73c 6720 173d caed 513c
00000360: 36a7 c53c 6eea 5f3d d714 3cbd 56e5 81bd
00000370: 27de 383d de76 9a3c 1918 b4bb 31e0 0fbd
00000380: 8b75 043d c919 04bd 4ed4 0bbd dcb4 963d
00000390: 5efb 6abd 7cc6 2ebc dc87 a2bd a11b d93c
000003a0: 0c08 a2bc 0c23 843d 7753 16bd 2c6d 82bd
000003b0: f100 d43c 3b51 1fbc 6714 87bd 2e61 88bd
000003c0: 2d58 0d3d 210a 113a 8d66 e43c f7d0 65bd
000003d0: 7b9e 593c 0097 273d 0d99 793d 23a6 3f3d
000003e0: fded 0e3d 8b2b b93c 81dc c93c e4b3 8b3d
000003f0: cdcc 95bd c7b7 3fbd 4cf2 45bc 86e2 1f3b

layers.0.node_update_mlp.0.bias f4 [50]
-0.01594535 -0.08049745 0.03989224 -0.05710581 -0.06871746 0.013795741 -0.050649967 -0.022710323
-0.007961788 0.060017988 -0.014906056 -0.048320778 -0.10265486 -0.10931446 -0.067941755 0.047348436
0.030834235 0.06295152 -0.040999472 0.0054033995 0.034396663 -0.007473955 0.017096952 0.016679274
-0.07025253 0.05824036 -0.040049125 0.0022025108 0.024227943 -0.026382463 0.03321697 -0.025303844
0.02685942 -0.017352218 0.06105573 -0.0925878 -0.045859102 -0.019422855 0.012515806 0.0513321
-0.027953215 -0.044636384 -0.04036081 -0.003722973 -0.08559979 0.010172139 -0.029059542 0.028996496
-0.009968355 0.046824023
00000000: d39f 82bc d9db a4bd 0c66 233d c8e7 69bd
00000010: bdbb 8cbd 8807 623c 5776 4fbd 000b babc
00000020: 2972 02bc 6cd5 753d 8838 74bc 02ec 45bd
00000030: b63c d2bd 42e0 dfbd 0c25 8bbd 6ff0 413d
00000040: 1498 fc3c baec 803d 10ef 27bd 000f b13b
00000050: 84e3 0c3d 14e8 f4bb e80e 8c3c f9a2 883c
00000060: 8fe0 8fbd 728d 6e3d 8d0a 24bd 0058 103b
00000070: ae79 c63c 0920 d8bc 840e 083d 024a cfbc
00000080: 4908 dc3c 3d26 8ebc 9315 7a3d ac9e bdbd
00000090: c1d6 3bbd ae1c 9fbc 180f 4d3c 9c41 523d
000000a0: 24fe e4bc a4d4 36bd 6051 25bd 1ffd 73bb
000000b0: f14e afbd 0ba9 263c 470e eebc 0f8a ed3c
000000c0: 5052 23bc 8cca 3f3d

layers.0.node_update_mlp.2.weight f4 [50, 50]
0.058132995 -0.1250847 0.03472197 0.110131055 -0.04262878 0.0027629237 -0.012061811 0.09688726
0.020291531 0.12885725 -0.13521628 -0.16047622 -0.097856164 0.019229397 0.09108731 0.06204502
0.09206096 -0.118894845 0.005124525 0.119814955 0.052575592 -0.0050468356 -0.1382164 -0.085159
-0.13426858 -0.16563743 -0.023836594 0.037153065 -0.18751831 0.11096675 -0.007900093 0.11705367
-0.050075926 0.024536101 0.03237809 -0.043280136 0.14720258 -0.10495776 -0.10994483 0.10049472
-0.09520364 0.020765776 0.07755331 0.04504085 0.062559135 -0.26689765 -0.14680192 0.04371918
0.08812819 -0.07392792 -0.005700166 -0.087511316 -0.058013063 0.054803494 0.17164777 -0.08964546
-0.023455255 0.06217331 -0.07740854 0.062144414 -0.08975097 -0.018325992 -0.14912213 0.067940705
-0.0056261304 0.065341204 -0.10098429 -0.116425365 0.055085238 -0.050389804 -0.11676511 -0.095970534
0.15265946 -0.06994628 -0.03273446 0.046143588 -0.07390503 0.2012247 -0.17322148 0.07383271
0.114531085 0.051661596 -0.16692792 0.11523466 -0.0863788 0.04388091 -0.07401408 -0.064824894
-0.072750725 0.08050867 -0.10582277 -0.1110296 -0.06137657 0.05286421 0.13822408 -0.20545468
0.09760423 -0.03594161 0.11562372 0.12097811 0.13148312 -0.11684125 0.12889363 0.04518163
0.11731041 0.15762556 0.137829 -0.0016815434 -0.01583918 -0.082302965 -0.014933076 -0.03175109
0.02482119 -0.0086897025 0.0986578 -0.04407608 0.11442689 -0.1020403 -0.038132325 -0.09037179
-0.08113687 0.13392234 0.1245596 -0.11854702 -0.23134853 -0.13876393 0.073015556 0.018058537
-0.00531377 -0.06952918 -0.04819431 0.077965856 -0.03157347 -0.109107904 0.07748023 -0.10278947
0.16405022 -0.017005734 -0.01784854 -0.063876055 0.03298637 0.014607992 -0.19696917 -0.08652901
0.015510467 -0.20586729 0.08022313 0.09909399 -0.06167101 0.011861019 0.058542218 -0.041802503
-0.06690104 0.039962996 0.042676132 0.1875106 0.006123205 -0.13354936 0.082779564 0.036630914
-0.0058714035 -0.108150005 -0.13907762 -0.048524443 0.1049455 0.12119959 -0.06856933 0.09608774
0.14131586 -0.013567528 0.062069807 -0.122207865 0.04626452 0.18285456 0.14372072 0.1555239
0.109841205 0.051427238 0.169805 0.017270004 -0.13906911 -0.14052998 0.17388183 -0.056388967
-0.061193824 0.067639135 -0.040209368 -0.10252102 0.061987933 0.043683533 0.06779734 -0.074124746
0.13676067 0.15280795 0.09524208 0.28915748 0.06487978 -0.08695624 0.15872115 -0.048116602
-0.0042071515 0.10134445 -0.03254696 0.12822886 -0.06331572 -0.08314399 -0.095525764 -0.05936609
-0.12841652 -0.054233503 -0.12164477 0.13036904 -0.11869937 0.14471306 -0.16569884 -0.12974438
0.14313832 -0.10665277 -0.052469455 0.04286009 0.03415582 0.14334677 0.055634532 0.07348998
0.13370979 0.24196838 -0.027430823 0.072266445 0.1766651 -0.12071375 -0.06712547 0.079731576
-0.11068998 0.000564696 0.08378301 0.05787013 0.026909705 0.020096056 -0.13033876 -0.032623924
0.04365428 0.12963249 0.06184209 0.14350823 -0.033333514 0.019472908 -0.056769885 -0.059102517
0.04937062 0.13636357 -0.17783615 -0.14648154 -0.09185128 0.11142492 -0.07682638 0.048919257
00000000: dd1c 6e3d 3416 00be a038 0e3d 648c e13d
00000010: 849b 2ebd 2b12 353b e79e 45bc d46c c63d
00000020: 6d3a a63c 28f3 033e 2376 0abe e153 24be
00000030: d068 c8bd f886 9d3c fc8b ba3d eb22 7e3d
00000040: 758a bc3d 247f f3bd a2eb a73b 8b61 f53d
00000050: 8159 573d ed5f a5bb 9a88 0dbe d767 aebd
00000060: b47d 09be dc9c 29be f644 c3bc d02d 183d
00000070: cd04 40be 8942 e33d 646f 01bc d6b9 ef3d
00000080: 6a1c 4dbd efff c83c e39e 043d 8346 31bd
00000090: 46bc 163e 18f4 d6bd c12a e1bd 2dd0 cd3d
000000a0: 20fa c2bd fd1c aa3c 45d4 9e3d c17c 383d
000000b0: 011f 803d cfa6 88be 3e53 16be e212 333d
000000c0: 8d7c b43d 8567 97bd 75c8 babb 2239 b3bd
000000d0: 1b9f 6dbd a179 603d 6fc4 2f3e 0a98 b7bd
000000e0: 3c25 c0bc 71a9 7e3d 5e88 9ebd 248b 7e3d
000000f0: 5bcf b7bd 6420 96bc 79b3 18be 7f24 8b3d
00000100: 675b b8bb 9cd1 853d dad0 cebd 6c70 eebd
00000110: 0fa1 613d 8a65 4ebd 8c22 efbd 338c c4bd
00000120: c352 1c3e ff3f 8fbd 9214 06bd 0f01 3d3d
00000130: 855b 97bd d90d 4e3e f960 31be 9b35 973d
00000140: 468f ea3d 1c9b 533d 27ef 2abe 2600 ec3d
00000150: 5ee7 b0bd 78bc 333d b294 97bd eac2 84bd
00000160: 55fe 94bd bbe1 a43d 9cb9 d8bd 7d63 e3bd
00000170: 0066 7bbd 2488 583d 9d8a 0d3e b662 52be
00000180: bae4 c73d 8237 13bd 21cc ec3d 5fc3 f73d
00000190: 83a3 063e 774a efbd b1fc 033e 5f10 393d
000001a0: 7140 f03d 9868 213e 0c23 0d3e 3c67 dcba
000001b0: 2bc1 81bc 758e a8bd dca9 74bc 6e0d 02bd
000001c0: cf55 cb3c 415f 0ebc 1a0d ca3d 1f89 34bd
000001d0: a558 ea3d 81fa d0bd a430 1cbd d814 b9bd
000001e0: 162b a6bd f022 093e 1b19 ff3d c8c8 f2bd
000001f0: a1e6 6cbe 2218 0ebe 2e89 953d 7fef 933c
00000200: 221f aebb 5165 8ebd 6667 45bd 90ac 9f3d
00000210: 2f53 01bd f773 dfbd f4ad 9e3d 4983 d2bd
00000220: c8fc 273e 9c4f 8bbc 1a37 92bc 73d1 82bd
00000230: b71c 073d 5c56 6f3c 49b2 49be 1f36 b1bd
00000240: 9d1f 7e3c e0ce 52be 064c a43d caf1 ca3d
00000250: be9a 7cbd b854 423c f7c9 6f3d 1a39 2bbd
00000260: 6a03 89bd 3db0 233d 2bcd 2e3d c702 403e
00000270: 2ba5 c83b 2ac1 08be 5588 a93d 4c0a 163d
00000280: e764 c0bb c07d ddbd 5d6a 0ebe 91c1 46bd
00000290: abed d63d 7e37 f83d 146e 8cbd a6c9 c43d
000002a0: 1bb5 103e 564a 5ebc e93c 7e3d 1e48 fabd
000002b0: de7f 3d3d 3a3e 3b3e 862b 133e a841 1f3e
000002c0: 6df4 e03d 5ea5 523d 5de1 2d3e d379 8d3c
000002d0: 2268 0ebe 17e7 0fbe 140e 323e 1ef8 66bd
000002e0: 60a6 7abd 6386 8a3d 94b2 24bd 8af6 d1bd
000002f0: 0fe7 7d3d 81ed 323d 55d9 8a3d b7ce 97bd
00000300: fd0a 0c3e b079 1c3e 480e c33d 730c 943e
00000310: b1df 843d 1d16 b2bd cc87 223e ea15 45bd
00000320: 25dc 89bb ae8d cf3d f64f 05bd 6d4e 033e
00000330: acab 81bd 6547 aabd 03a3 c3bd db29 73bd
00000340: 9f7f 03be f323 5ebd e520 f9bd 767f 053e
00000350: a818 f3bd a92f 143e f5ac 29be b6db 04be
00000360: da92 123e c46c dabd 36ea 56bd 108e 2f3d
00000370: f9e6 0b3d 7fc9 123e 09e1 633d ea81 963d
00000380: 38eb 083e 8fc6 773e 9bb6 e0bc 6e00 943d
00000390: b2e7 343e c538 f7bd 1479 89bd 4f4a a33d
000003a0: 6eb1 e2bd 1b08 143a 6d96 ab3d 3b09 6d3d
000003b0: be71 dc3c 7ca0 a43c 8677 05be aaa0 05bd
000003c0: d5ce 323d 61be 043e 224e 7d3d d2f3 123e
000003d0: b988 08bd a685 9f3c 8a87 68bd 7b15 72bd
000003e0: d938 4a3d e4a2 0b3e ae1a 36be 42ff 15be
000003f0: 861c bcbd c032 e43d 2657 9dbd 8f5f 483d

layers.0.node_update_mlp.2.bias f4 [50]
0.15924405 0.11753865 -0.08187618 -0.14358115 -0.05340709 0.08313209 -0.12183362 -0.06580021
-0.08785963 0.03288933 0.12948008 0.0056504365 -0.084806114 -0.04799849 -0.13195285 -0.116607
-0.15566835 -0.083334535 -0.0050645103 -0.025580578 0.038920507 -0.040670928 -0.079262555 0.10294096
-0.08113187 -0.002457959 -0.030818043 0.10720607 -0.016864737 0.03572348 -0.11413778 0.04245601
-0.059733644 0.07948706 -0.004820318 0.025097666 -0.05181671 -0.038024686 -0.08654772 0.10775854
-0.07044724 0.12298729 -0.11605282 0.008738033 0.10091663 -0.040893193 0.05863261 -0.11763669
0.088911705 -0.032122333
00000000: df10 233e 1bb8 f03d b3ae a7bd f006 13be
00000010: 65c1 5abd 2841 aa3d e883 f9bd 43c2 86bd
00000020: c0ef b3bd f6b6 063d 6d96 043e 4c27 b93b
00000030: d4ae adbd 119a 44bd a61e 07be a7cf eebd
00000040: 8667 1fbe 4cab aabd 31f4 a5bb 5c8e d1bc
00000050: 1c6b 1f3d 8f96 26bd 6854 a2bd b6d2 d23d
00000060: 7728 a6bd b615 21bb 1f76 fcbc db8e db3d
00000070: eb27 8abc c952 123d 12c1 e9bd 5ae6 2d3d
00000080: 44ab 74bd 1dca a23d c2f3 9dbb 9f99 cd3c
00000090: c23d 54bd c6bf 1bbd ee3f b1bd 82b0 dc3d
000000a0: a446 90bd c3e0 fb3d 1aad edbd f729 0f3c
000000b0: 61ad ce3d 9f7f 27bd bf28 703d 81eb f0bd
000000c0: 5717 b63d b592 03bd

layers.0.edge_update_mlp.0.weight f4 [50, 200]
-0.102827676 -0.06473889 -0.010552806 -0.033248954 0.024038162 -0.05706246 0.04624793 0.050231963
0.03133756 0.09199767 0.034789965 -0.0029424685 0.10664232 -0.14401019 0.14370269 -0.030913379
0.087981895 0.04360977 -0.12382897 0.03812803 0.09961286 -0.08429602 0.05703166 -0.09681286
-0.017713899 0.07684469 -0.09496145 -0.03607834 0.092067115 0.049818657 -0.002557276 0.06300359
0.1110631 0.00443395 0.0025755174 -0.13225794 0.057344403 0.14985998 0.019856228 -0.075094454
0.16651604 0.10551129 0.040615425 -0.025229525 -0.036461864 0.0019255035 -0.06935099 0.02147434
-0.015786571 0.0507482 0.10343287 -0.0011915244 0.08374178 -0.07803593 -0.14943686 0.010630867
-0.003387341 0.054159954 -0.09643828 0.096823804 0.012700903 -0.0054550697 0.08276224 -0.007165199
-0.012339508 0.03767731 0.07388677 -0.023940112 0.039541945 0.0068757776 -0.004075726 0.0096098315
0.004737505 -0.054327607 0.08281368 0.039327685 -0.0149650015 -0.06398639 0.05476736 0.029283041
-0.1039678 -0.11779251 0.08467661 0.033583995 0.032777295 -0.053567804 0.07145856 0.12762085
-0.07979042 -0.036685713 0.0421044 -0.011132295 0.055088505 -0.098930344 -0.05676987 0.106409356
-0.09120658 0.031459726 -0.020254545 0.10495962 -0.03369146 0.027060645 -0.0052238125 0.14106703
0.03820904 0.111797094 -0.077734075 -0.013759142 -0.15448454 -0.07307988 -0.05036715 -0.04390356
-0.030195326 -0.067627765 -0.017208602 0.06277776 -0.07808608 -0.023702638 -0.0038056704 -0.0107954405
-0.034041632 0.037356757 0.068006925 -0.044030175 0.0645508 0.13191126 0.07977868 0.06831857
0.069018774 0.0026594393 -0.09961199 -0.116694115 -0.028689157 0.15432972 0.0019827008 0.036651667
-0.09947976 0.04077688 0.09985678 -0.06624381 -0.059635967 -0.1272088 0.13516095 0.08043538
-0.020724198 -0.015732942 0.04228463 0.021854945 0.06430916 0.0054391595 -0.011658334 -0.06830538
-0.070668966 -0.10818605 -0.036762584 -0.08869865 -0.074077226 -0.044728443 0.014896565 0.0059045483
-0.016335431 0.102816634 -0.0970497 0.00511659 -0.0024733066 0.05956273 0.03679452 0.0040020887
-0.00691989 -0.06479823 -0.08310278 0.115744926 0.05393474 0.031533733 0.05846982 -0.049513116
-0.03977576 0.09511617 0.019516157 0.004977969 -0.046025764 -0.051226184 0.044377793 -0.02935383
0.07960582 -0.014663111 -0.03363286 0.07169921 0.017233806 -0.010444434 0.04623929 0.08467786
-0.11685897 0.0011989911 -0.06431601 -0.030858152 0.11658649 0.068376526 0.036139783 -0.009997525
0.05858732 0.0012364227 0.02585649 -0.037404384 -0.034859616 0.010432889 -0.050972108 -0.07418412
0.0064210384 0.0460386 -0.020158673 0.036565248 0.049273454 0.006390952 0.07227233 0.0018934127
-0.040433012 0.05986263 0.03323446 0.031346757 0.038348928 -0.0017999749 -0.05210511 0.042081967
-0.022243328 -0.09020561 0.00578192 0.013038434 -0.029844439 -0.02602359 0.01102507 -0.017293597
0.002019994 0.106909126 0.048778426 0.0016401383 0.016884264 -0.00058159017 0.06524714 0.043072846
-0.1169908 0.023608372 0.043448154 -0.017529916 -0.05608196 0.052156094 -0.059256848 0.06730971
-0.0074624615 -0.016768962 -0.0396851 0.076137505 0.0035984032 0.04184919 0.009198678 0.027199069
00000000: 5197 d2bd d395 84bd ade5 2cbc 0e30 08bd
00000010: aeeb c43c 53ba 69bd 786e 3d3d 08c0 4d3d
00000020: d05b 003d 4669 bc3d ec7f 0e3d 6ed6 40bb
00000030: 4a67 da3d 6877 13be cc26 133e 0e3e fdbc
00000040: da2f b43d 28a0 323d 0b9a fdbd 232c 1c3d
00000050: d401 cc3d 64a3 acbd 089a 693d d245 c6bd
00000060: bd1c 91bc c060 9d3d 267b c2bd e2c6 13bd
00000070: af8d bc3d a60e 4c3d f997 27bb 0708 813d
00000080: 0d75 e33d ab4a 913b 03ca 283b a06e 07be
00000090: f7e1 6a3d e574 193e 87a9 a23c 1fcb 99bd
000000a0: 2e83 2a3e 4e16 d83d 5c5c 263d 26ae cebc
000000b0: 0959 15bd 2d61 fc3a e407 8ebd f5ea af3c
000000c0: d752 81bc 58dd 4f3d 9dd4 d33d ed2c 9cba
000000d0: cf80 ab3d 4dd1 9fbd fa05 19be 172d 2e3c
000000e0: 27fe 5dbb d4d6 5d3d 6f81 c5bd 8f4b c63d
000000f0: 7317 503c 71c0 b2bb 407f a93d 0cca eabb
00000100: a62b 4abc 8653 1a3d f251 973d 0e1e c4bc
00000110: bcf6 213d 344e e13b ab8d 85bb 8e72 1d3c
00000120: 133d 9b3b a086 5ebd 389a a93d 1116 213d
00000130: c42f 75bc 4c0b 83bd bd53 603d fde2 ef3c
00000140: 12ed d4bd 333d f1bd ee6a ad3d 5f8f 093d
00000150: 7c41 063d ea69 5bbd de58 923d 0aaf 023e
00000160: 2969 a3bd c243 16bd aa75 2c3d 3b64 36bc
00000170: 7ca4 613d fe9b cabd 8687 68bd 26ed d93d
00000180: 84ca babd eadb 003d dcec a5bc 12f5 d63d
00000190: 0e00 0abd 49ae dd3c 842c abbb e073 103e
000001a0: 1581 1c3d e0f5 e43d 0b33 9fbd 066e 61bc
000001b0: 3231 1ebe e7aa 95bd c94d 4ebd 38d4 33bd
000001c0: 305c f7bc 6d80 8abd 0ef9 8cbc a091 803d
000001d0: 98eb 9fbd 092c c2bc 8e68 79bb 5cdf 30bc
000001e0: 3d6f 0bbd 6603 193d 3747 8b3d fc58 34bd
000001f0: 3633 843d bf13 073e 0163 a33d 9bea 8b3d
00000200: b759 8d3d fd49 2e3b 5f01 ccbd 53fd eebd
00000210: 8605 ebbc 9c08 1e3e 33f0 013b 0f20 163d
00000220: 0bbc cbbd a805 273d b681 cc3d d6aa 87bd
00000230: d844 74bd 0643 02be a267 0a3e 4ebb a43d
00000240: cbc5 a9bc 5fe2 80bc a632 2d3d 2409 b33c
00000250: 85b4 833d fa3a b23b 9902 3fbc b1e3 8bbd
00000260: e4ba 90bd a690 ddbd 5d94 16bd a3a7 b5bd
00000270: cdb5 97bd 2c35 37bd b910 743c f17a c13b
00000280: e2d1 85bc 8791 d23d fec1 c6bd 11a9 a73b
00000290: 3317 22bb 0df8 733d dab5 163d f423 833b
000002a0: 3fc0 e2bb efb4 84bd ca31 aabd ad0b ed3d
000002b0: adea 5c3d 8429 013d 0d7e 6f3d 44ce 4abd
000002c0: e8eb 22bd 44cc c23d 59e0 9f3c 3b1e a33b
000002d0: 8385 3cbd 8cd2 51bd 7dc5 353d 7177 f0bc
000002e0: 6008 a33d 8c3d 70bc 9cc2 09bd 09d7 923d
000002f0: e92d 8d3c 221f 2bbc 6965 3d3d 966b ad3d
00000300: c153 efbd 7727 9d3a 1db8 83bd 3cca fcbc
00000310: e6c4 ee3d fe08 8c3d 4f07 143d a9cc 23bc
00000320: 42f9 6f3d 760f a23a fdd0 d33c 5735 19bd
00000330: f5c8 0ebd b5ee 2a3c 21c8 50bd d8ed 97bd
00000340: 9367 d23b f992 3c3d cd23 a5bc 71c5 153d
00000350: f6d2 493d 316b d13b 8403 943d 632c f83a
00000360: 169d 25bd 8432 753d db20 083d 7565 003d
00000370: c413 1d3d 23ed ebba 2b6c 55bd 245e 2c3d
00000380: a437 b6bc b8bd b8bd 4376 bd3b 289f 553c
00000390: 537c f4bc 6c2f d5bc 7fa2 343c 4dab 8dbc
000003a0: e061 043b 2cf3 da3d e3cb 473d e9f9 d63a
000003b0: de50 8a3c db75 18ba 4ba0 853d 276d 303d
000003c0: df98 efbd 5866 c13c b1f6 313d e69a 8fbc
000003d0: 33b6 65bd a1a1 553d 4fb7 72bd acd9 893d
000003e0: aa87 f4bb 105f 89bc d88c 22bd fbed 9b3d
000003f0: 30d3 6b3b 0e6a 2b3d 0db6 163c 95d0 de3c
