fruitygnn_model.pth (torch, 692746 bytes, 67 tensors)

node_embedding.weight f4 [101, 50]
0	0x3efff251	0.4998956
1	0x3ef305d4	0.47465384
2	0xbfe6b7c7	-1.8024834
3	0xbf3bb262	-0.73319066
4	0xbe92431a	-0.2856682
5	0x3e38ca58	0.18045938
6	0xbf1696ee	-0.5882405
7	0x3f151bf1	0.5824576
8	0x3f910314	1.1329064
9	0xbed7d096	-0.42151326
10	0xbf972e28	-1.1810961
11	0x3f3123a7	0.69195026
12	0xbf3cde05	-0.73776275
13	0x3d4a0b59	0.04932723
14	0x4002baa3	2.0426414
15	0x3f8b861f	1.0900306
16	0x3fc365f0	1.5265484
17	0x3e15395e	0.14572665
18	0xbf9d7307	-1.2300729
19	0xbf68bc45	-0.90912277
20	0x3fc9f289	1.5777141
21	0xbed2a731	-0.41143182
22	0x400f8ecc	2.2430906
23	0x3fcd3237	1.6030949
24	0x3fba2523	1.4542583
25	0x3e6bd25b	0.23029463
26	0xbf998464	-1.1993527
27	0xba426716	-0.00074158737
28	0x3f9ce683	1.2257847
29	0x3f53db06	0.8275608
30	0xbfa1dc01	-1.2645265
31	0xbf53c40d	-0.82721025
32	0x3eb4bd3a	0.35300618
33	0xbf6e8203	-0.9316713
34	0xbf6d24df	-0.92634386
35	0x3fe910a4	1.8208203
36	0xbf1f7bbe	-0.6229819
37	0xbf5db27a	-0.8660046
38	0xbf84137e	-1.0318449
39	0xbedbcff6	-0.429321
40	0x3fc7beeb	1.5605139
41	0xbdafa76c	-0.08576855
42	0x3f2d80fa	0.6777493
43	0xc001ffbc	-2.0312338
44	0xbcbb2dae	-0.02284893
45	0x3f039e5c	0.5141351
46	0xbfb06676	-1.3781269
47	0x3ba75f15	0.00510777
48	0xc0284af3	-2.6295745
49	0x3f70968c	0.93979716
50	0x3e8ade34	0.27122653
51	0x3f877587	1.0582741
52	0xbf854199	-1.0410644
53	0x3f2b10fc	0.6682279
54	0x3e6e98a8	0.23300421
55	0xbeb8a0d0	-0.3606019
56	0xbff8921d	-1.941959
57	0xbe723419	-0.23652686
58	0x3f137e53	0.5761463
59	0xbfbd648a	-1.4796307
60	0xbf2ce645	-0.67538863
61	0x3e84577d	0.25847998
62	0xbe7a4cbc	-0.24443334
63	0x3def33cf	0.116798036
64	0x3dba961f	0.091106646
65	0xbfa589e6	-1.2932708
66	0x3fcc30b0	1.5952358
67	0x3fa85b65	1.3152891
68	0xbee9ae9b	-0.45641026
69	0x3fba72b4	1.4566255
70	0xbe840cc6	-0.25790995
71	0x3f389004	0.7209475
72	0x3dd02429	0.10163147
73	0xbf8c0528	-1.0939074
74	0x3f521181	0.8205796
75	0xbc7c4050	-0.015396193
76	0xbf781501	-0.9690705
77	0x3f1934da	0.5984627
78	0x3d52811d	0.051392663
79	0x3cfcbeb6	0.030852657
80	0xbf0216ba	-0.5081593
81	0x3f573aae	0.84073913
82	0x3f0eadfd	0.55734235
83	0x3f7c0a3a	0.98453104
84	0x3cdc2d35	0.026877025
85	0x3f7dc224	0.9912436
86	0x3f1fd522	0.6243459
87	0xbeab3c19	-0.33444288
88	0x3eb5b4cb	0.35489497
89	0xbf539700	-0.8265228
90	0x3f2be275	0.6714242
91	0xbea217eb	-0.31658873
92	0x3f7aa22f	0.9790372
93	0x3f8a4339	1.0801765
94	0xbf25bcb3	-0.6474106
95	0x3e8792f7	0.26479313
96	0x3f77661a	0.9664017
97	0x3f286108	0.6577306
98	0xbf47b2be	-0.78007114
99	0x3ee183e5	0.4404594
100	0xbe574833	-0.21023636
101	0xbe6fa45c	-0.23402542
102	0x3f108284	0.5644915
103	0xbf90de91	-1.1317922
104	0x3f033347	0.5125012
105	0x3fa7f2d6	1.3120983
106	0xbd18962b	-0.037252586
107	0x3fc1d68b	1.5143598
108	0xbec87d61	-0.39158157
109	0x3f5f6bed	0.87274057
110	0x3ed34381	0.4126244
111	0xbf06a03c	-0.5258825
112	0x3ebc242d	0.3674635
113	0xbfd48f7c	-1.6606288
114	0xbe9583c3	-0.2920209
115	0xbec1980c	-0.37811315
116	0xbf0e7cd9	-0.5565925
117	0xbf6bd542	-0.9212228
118	0xbf1fb1b5	-0.62380534
119	0xbea65576	-0.32487077
120	0x3f4bbba4	0.7958319
121	0x3f4c0f15	0.79710513
122	0x3e9843f6	0.2973935
123	0xbea735dc	-0.3265828
124	0x3e7a7d4f	0.24461864
125	0x3f19076e	0.5977696
126	0xbf4b445c	-0.79401183
127	0x3e24529b	0.16047136
128	0xbea16f85	-0.31530395
129	0xbfb36c83	-1.401749
130	0x3f6cf1f3	0.92556685
131	0xbb7a63ee	-0.0038206535
132	0xbf230abb	-0.6368825
133	0xbea7d9cd	-0.32783356
134	0x4000b41f	2.0109937
135	0xbf35b37a	-0.70976985
136	0xbebd6b3d	-0.3699588
137	0xbf6f60ac	-0.93506885
138	0xc00ed447	-2.2317064
139	0x40041c47	2.064226
140	0x4022da19	2.5445616
141	0xbfaa9399	-1.3326293
142	0x3f8e90ed	1.1137978
143	0x3f3c9944	0.73671365
144	0xbe8e0eb3	-0.2774559
145	0xbf84ea45	-1.0383993
146	0x3f6b212f	0.9184751
147	0xbfe3990b	-1.778108
148	0xbf5919b6	-0.84804857
149	0x3e310dbf	0.172904
150	0x3eba60c0	0.3640194
151	0x3f1d1f7c	0.61376166
152	0x3d4c2e11	0.04984862
153	0x3e52cf45	0.2058688
154	0x3f0f8953	0.56068915
155	0xbf5b8006	-0.85742223
156	0xbf05636d	-0.52104837
157	0xbf5ed6b3	-0.87046355
158	0x3f25c273	0.6474983
159	0xbf90d0df	-1.1313742
160	0x3f96d148	1.1782618
161	0xbfe72fe9	-1.8061496
162	0x3fa0c3c3	1.2559742
163	0xbf8b8c70	-1.0902233
164	0x3f267435	0.6502107
165	0x3fad7720	1.3551979
166	0xbf995d0d	-1.1981522
167	0xc037b356	-2.8703208
168	0xbfc727ba	-1.5558999
169	0x3f0557f0	0.52087307
170	0x3e618c64	0.22026211
171	0x400cd0c8	2.200243
172	0x3ea985c1	0.3310986
173	0xbe613e65	-0.21996458
174	0x3fcfdc7d	1.6239163
175	0xbe7cf9c4	-0.24704653
176	0x3ed2c027	0.41162226
177	0x3d861cd8	0.0654847
178	0x3f2d2eba	0.67649424
179	0x3f7bf51a	0.9842087
180	0x3cd674c6	0.026178729
181	0xbee59aeb	-0.44844756
182	0x3f8f68da	1.1203873
183	0x3ead2be5	0.3382255
184	0x3eac9b61	0.33712295
185	0x3fc7cc6b	1.5609258
186	0x3f554a8a	0.8331686
187	0xbf8e52c8	-1.1119013
188	0xbf52f720	-0.8240833
189	0xbf1636c6	-0.5867733
190	0x3f020b27	0.5079827
191	0x3f80f45d	1.0074574
192	0xbe3b4e90	-0.18291688
193	0x3f974214	1.181704
194	0xbecd223c	-0.4006518
195	0xbeed17c4	-0.46307194
196	0x3e665520	0.2249341
197	0x3dc42ae1	0.09578491
198	0x3f8fe587	1.1241921
199	0xbfac81de	-1.3477132
200	0x3f1bdb4e	0.6088151
201	0x3fb8573e	1.4401624
202	0x3fa4b452	1.2867529
203	0xbe6db2fc	-0.23212808
204	0xbfc23738	-1.5173101
205	0x3f41ee64	0.7575438
206	0xbfe9f428	-1.8277636
207	0xbdd58ce7	-0.104272656
208	0xbfc1e48a	-1.514787
209	0xbf02e5b1	-0.5113173
210	0x3f4e56d2	0.8060123
211	0x3f7cae61	0.9870358
212	0xbec62f0a	-0.38707763
213	0x3f338f99	0.7014099
214	0xbff116a9	-1.883504
215	0xbf37365f	-0.7156734
216	0xbfee58a2	-1.8620799
217	0xbf75dbd7	-0.96038574
218	0xbf35e9fe	-0.7106017
219	0xbfec3f0e	-1.8456743
220	0x3f01940c	0.50616527
221	0x3e405e2d	0.18785925
222	0xbfefad8a	-1.8724835
223	0xbd012d18	-0.031537145
224	0xbf86c70d	-1.0529495
225	0xbf521e12	-0.82077134
226	0x3e9f1049	0.31067112
227	0x3fac78a2	1.3474314
228	0xbe93b4da	-0.28848916
229	0x3e6c13dd	0.23054452
230	0xbe3e4888	-0.18582356
231	0xbf9f7e52	-1.2460425
232	0x3eea0690	0.45708132
233	0xbf123ebe	-0.57126987
234	0x3eef216f	0.46705195
235	0xbf90b8cc	-1.1306396
236	0x3f95a24b	1.1690153
237	0xbffa86c8	-1.9572382
238	0xbea09257	-0.31361648
239	0xbf3ce502	-0.7378694
240	0xbfa4e112	-1.2881186
241	0xbf8e64aa	-1.112447
242	0xbfa86ffe	-1.3159177
243	0x3fa3df01	1.280243
244	0xbfd61090	-1.6723804
245	0x3f820627	1.0158128
246	0x3f6cc7a2	0.92492115
247	0xbed22726	-0.41045493
248	0x400d81e2	2.2110524
249	0xbfa1efe0	-1.2651329
250	0xbf10d456	-0.56574
251	0xbf33685d	-0.7008112
252	0x3f805ea1	1.0028878
253	0x3f6140e7	0.8798966
254	0xbee70757	-0.45122787
255	0x3e4c52dd	0.19953485

edge_embedding.weight f4 [5, 50]
0	0xbfba6ee9	-1.4565097
1	0x3f62808c	0.88477397
2	0xbea36461	-0.3191252
3	0x3f157d82	0.58394635
4	0xbf7c406b	-0.98535794
5	0xbf9bd31b	-1.2173799
6	0x3ecf188a	0.4044841
7	0x3fd5245c	1.6651721
8	0x3fa4fd6d	1.288984
9	0xbf6558ec	-0.8958881
10	0xbe32079b	-0.17385714
11	0xbf9d304b	-1.2280363
12	0x3fcc32e4	1.595303
13	0xbe64c2f5	-0.22339995
14	0x3fcf5233	1.619696
15	0xbfba8569	-1.4571964
16	0xbe8aa1e7	-0.27076647
17	0xbec6f938	-0.38862014
18	0xbebe3510	-0.37149858
19	0xbf52cbd6	-0.8234228
20	0xbe800220	-0.2500162
21	0x3f0841cb	0.5322539
22	0x3f93089a	1.1487
23	0x3fe6b0fd	1.8022763
24	0x3fb1a56f	1.3878611
25	0xbfb2b50f	-1.3961505
26	0xbf047b4f	-0.51750654
27	0xbdc2bff3	-0.09509268
28	0xbe0f0b65	-0.1396919
29	0x3f89ede8	1.0775728
30	0x3fcf3002	1.6186526
31	0x3f47d8e9	0.78065354
32	0x3ddbeef2	0.107389346
33	0xc018ab24	-2.3854456
34	0xbf436091	-0.76319224
35	0xbe07c357	-0.1325811
36	0x3d51959f	0.05116808
37	0x3e0ae931	0.13565518
38	0x3e5d1712	0.21590832
39	0xbfcb754b	-1.589517
40	0x3fc6cc72	1.5531142
41	0xbfdc57fa	-1.7214348
42	0xbf18e716	-0.5972761
43	0xbf88b129	-1.0679065
44	0xbfb63af5	-1.4236742
45	0xbf5ecff7	-0.8703608
46	0xbfbd5a9b	-1.4793276
47	0x3dbc0b6f	0.09181868
48	0x3f458a8d	0.77164537
49	0x3fb34e96	1.4008358
50	0x3e5dea20	0.21671343
51	0x3f01cfc3	0.50707644
52	0x3db90753	0.090346
53	0x4042843b	3.0393207
54	0xbf72ffe4	-0.9492171
55	0x3f8267b5	1.0187899
56	0x3e21f4c3	0.15816025
57	0x3f80cc76	1.0062397
58	0x3ea2c8db	0.31793866
59	0x3dbe1679	0.0928163
60	0x3f7b7c67	0.982367
61	0xbf32cd85	-0.6984485
62	0xbf882593	-1.0636467
63	0x3ea479df	0.3212423
64	0x3f403413	0.7507946
65	0x3e3a33a5	0.18183763
66	0x3f6c7165	0.92360526
67	0xbe9beb34	-0.30452883
68	0x3ead0c90	0.33798647
69	0xbea94995	-0.3306395
70	0xbd8f0b99	-0.06984634
71	0x3f800055	1.0000101
72	0x3f606f27	0.87669605
73	0xbe82061c	-0.25395286
74	0xbec84a0a	-0.39118987
75	0xbed5ceb3	-0.4175926
76	0xbf2670dd	-0.65015966
77	0xbf369b20	-0.7133045
78	0xbf3e0c01	-0.74237067
79	0xbf18ea72	-0.59732735
80	0xbf2c33a5	-0.67266303
81	0x3f7d89e6	0.9903854
82	0x3f9004d4	1.1251473
83	0xbf053227	-0.5202965
84	0xbfdc9950	-1.7234287
85	0x3fd65c03	1.674683
86	0x3e6887aa	0.22708002
87	0xbfd42522	-1.6573832
88	0x3edd304e	0.43200916
89	0x3fac7b41	1.3475114
90	0x3f552835	0.83264476
91	0x3f5460e2	0.8296033
92	0x3e50c29d	0.20386739
93	0xbf9f0c03	-1.2425541
94	0x3e9b064e	0.30278248
95	0xbfd4e1ca	-1.6631405
96	0xbf7a9707	-0.978867
97	0x3f751f13	0.9575054
98	0x3ed213df	0.41030785
99	0x3f0c6565	0.54842216
100	0xbfb35cbd	-1.4012676
101	0x3c8c471e	0.017123755
102	0xbfbc73a5	-1.4722792
103	0xbfb37a25	-1.402165
104	0x3f7fd1cd	0.99929506
105	0x3ea366e6	0.31914443
106	0x3e9d072d	0.30669537
107	0xbefb7b55	-0.49117532
108	0xbfdd1e7f	-1.7274932
109	0x3f9109cc	1.1331115
110	0xbfaa4349	-1.3301784
111	0x3ec37c63	0.38180837
112	0xbe35a447	-0.17738448
113	0xbeec1dd0	-0.46116495
114	0x3ebb8e07	0.36631796
115	0xbf378cd9	-0.7169929
116	0xbf538adf	-0.82633775
117	0xbfbca1fa	-1.4736931
118	0x3fc1dcb0	1.5145473
119	0x3f8eba2f	1.1150569
120	0xbf77467b	-0.9659192
121	0x3ee5f4b2	0.4491325
122	0xbd920e3f	-0.071316235
123	0x3ed8b6b9	0.42326906
124	0xbfe8f3a4	-1.8199353
125	0xbe74e15f	-0.23914097
126	0x3e1aa059	0.1510023
127	0x3f180de0	0.5939617
128	0xbfd5e18c	-1.6709456
129	0x3e891ec3	0.26781282
130	0xc00f06eb	-2.2347972
131	0xbf00a72d	-0.5025509
132	0x3faff064	1.3745236
133	0x3fa32bdb	1.2747759
134	0xbddb3b05	-0.107046165
135	0xbf5f130b	-0.8713843
136	0xbbd00c9f	-0.006349161
137	0xbfe4451a	-1.7833588
138	0x3ef0718c	0.4696163
139	0x3f7eeaa3	0.9957678
140	0xbedc63de	-0.43044943
141	0x3ed29510	0.4112935
142	0x3f9cf037	1.2260808
143	0xc00059af	-2.0054739
144	0xbfbd9374	-1.4810624
145	0x3e70383f	0.23458956
146	0x3e7995de	0.24373576
147	0xbf8058bd	-1.0027081
148	0xbe8b3475	-0.2718846
149	0xbda81f68	-0.08209115
150	0xbe514853	-0.20437746
151	0xbf27c646	-0.65536916
152	0xbd84667b	-0.06464859
153	0xbf2f36db	-0.6844308
154	0xbf80ba3e	-1.0056837
155	0xbcca3466	-0.024683189
156	0x3edd79de	0.4325704
157	0xbfb1518b	-1.385301
158	0x3f107ce3	0.5644056
159	0xbf44dc29	-0.7689844
160	0xbf141c79	-0.57855946
161	0xbfcd85c9	-1.6056453
162	0xbfb9b241	-1.4507524
163	0xbff50f6b	-1.914533
164	0xc04cc20e	-3.1993442
165	0x3f131bdc	0.57464385
166	0x3f40edde	0.75362957
167	0x3eaa98d6	0.3331973
168	0xc033f8fd	-2.812072
169	0xbfc89019	-1.5668975
170	0x3f846658	1.0343733
171	0xbf804d8d	-1.0023667
172	0xbf8d478f	-1.1037463
173	0x3f101255	0.5627797
174	0x3f14e2f8	0.58158827
175	0x404effd5	3.2343647
176	0x3e829a02	0.25508124
177	0x3e37d71c	0.17953151
178	0xbedd5022	-0.432252
179	0xbf653d79	-0.89546925
180	0x3f4a819b	0.7910401
181	0x3fb438d1	1.4079839
182	0xbe272ad7	-0.16324936
183	0xbf852e4d	-1.0404755
184	0xbf921f43	-1.141579
185	0x3eb17c25	0.34665027
186	0x3f4c3912	0.7977458
187	0x3dea2ce8	0.114343464
188	0xbe225cbb	-0.15855686
189	0xbf24565c	-0.64194274
190	0x3f1897ab	0.59606427
191	0xbfab3124	-1.3374372
192	0x3e4c53d0	0.19953847
193	0x3fb03ae7	1.3767976
194	0xbf891b95	-1.0711542
195	0x40071fd0	2.1113167
196	0xbeacdea9	-0.33763626
197	0x3efd24a5	0.4944202
198	0xbf587c35	-0.84564525
199	0x3f711156	0.9416708
200	0xbf8427af	-1.032461
201	0x3f8f7ca0	1.1209908
202	0xbe5b40eb	-0.21411483
203	0x3f85b23f	1.0445021
204	0xbf1033c7	-0.56329006
205	0x40186355	2.3810627
206	0xbf84d120	-1.037632
207	0x3f12977d	0.572624
208	0xbf141e3a	-0.5785862
209	0xbf40a949	-0.7525831
210	0xbf2c71b4	-0.67361
211	0xbeb771a5	-0.3582889
212	0x3dc5bd46	0.09655242
213	0xbfa8f34c	-1.3199248
214	0x3fc7229c	1.5557437
215	0xbee10293	-0.43947276
216	0xbf64f820	-0.8944111
217	0x3f19c2d3	0.60062903
218	0xbf611534	-0.8792298
219	0x3db90968	0.09034997
220	0xbec725ea	-0.38896114
221	0x3ff38c53	1.9027199
222	0xbfa3beec	-1.279264
223	0x3d8c276a	0.06843455
224	0xbff5f3d6	-1.9215038
225	0x3f1bf157	0.6091513
226	0x3f9d9b96	1.2313106
227	0x3fc675e2	1.5504725
228	0xbe62278c	-0.22085398
229	0x3fa7f84f	1.3122653
230	0xbde7d21a	-0.113193706
231	0x3e830067	0.25586244
232	0xbff2e6b4	-1.8976655
233	0x3eca0499	0.39456633
234	0x3e9a5ca4	0.30148804
235	0x3e0d40e4	0.13794285
236	0x3f67b2ee	0.905074
237	0x3e6e3fca	0.23266521
238	0xbf907636	-1.1286075
239	0xbf174acb	-0.590985
240	0x3db8c9a6	0.090228364
241	0x3d446735	0.04794999
242	0x3f6c37b7	0.92272514
243	0xbfec88cc	-1.8479247
244	0xbf525f21	-0.82176405
245	0xbff4b49c	-1.9117618
246	0x3f254c94	0.64569974
247	0xbf683e1b	-0.90719765
248	0xbee9af54	-0.45641577
249	0xbf91044c	-1.1329436

layers.0.node_message_mlp.0.weight f4 [50, 100]
0	0x3d796e37	0.060896125
1	0x3d9f130f	0.07767307
2	0xbda3d5a5	-0.07999734
3	0x3d971b05	0.073782004
4	0x3e446f73	0.1918314
5	0x3acfd1e3	0.0015855398
6	0xbd604e70	-0.054762304
7	0xbe0f9e54	-0.14025241
8	0x3d941e5a	0.072323516
9	0xbdd1fbf5	-0.10253135
10	0xbdea2240	-0.11432314
11	0x3d0a5376	0.033771
12	0xbac3bfdb	-0.0014934497
13	0xbd832917	-0.06404322
14	0xbdc3f6b6	-0.09568541
15	0xbd200154	-0.039063767
16	0x3df62f0f	0.120206945
17	0x3e42dd2a	0.1902968
18	0x3d534cde	0.05158698
19	0xbc7249af	-0.014788075
20	0xbe0fe13e	-0.14050767
21	0xbd061654	-0.032736138
22	0x3d782897	0.060585584
23	0xbe05bf2d	-0.13061209
24	0xbc06191f	-0.0081847
25	0x3d3f5262	0.046709426
26	0xbdd6a790	-0.10481179
27	0x3cacc5eb	0.021090468
28	0xbb6f3acc	-0.0036503552
29	0x3ded19a1	0.11577154
30	0xbc12c2d3	-0.0089575825
31	0x3de3658d	0.11103354
32	0x3e208ce4	0.15678746
33	0x3db56850	0.08857787
34	0x3d23bd4e	0.039975457
35	0xbc949435	-0.018137077
36	0x3d31c543	0.043401014
37	0xbd73e1d9	-0.059541557
38	0xbcd0d7c4	-0.02549351
39	0xbdb979cd	-0.09056435
40	0x3e08ccad	0.13359328
41	0xbd992dbb	-0.074794255
42	0x3e4b10ca	0.19830623
43	0x3da172d0	0.07883227
44	0xbbb307ac	-0.005463561
45	0x3c401783	0.011724356
46	0xbd292cf3	-0.041302633
47	0x3e762a9d	0.24039693
48	0x3cf479a0	0.029843152
49	0xbc8c1109	-0.017097967
50	0xbd49953f	-0.049214598
51	0xbc5a0cd3	-0.013308722
52	0x3de1ac49	0.11019189
53	0x3b360aea	0.0027777501
54	0x3d78407e	0.06060838
55	0x3d0495e9	0.032369528
56	0xbbc53f4b	-0.006019508
57	0xbc015a12	-0.00789501
58	0xbd7989a5	-0.060922284
59	0xbc2661eb	-0.010155181
60	0x3cd7b089	0.026329296
61	0xbd8496eb	-0.06474098
62	0x3bd0f2cc	0.0063766
63	0x3ba9f77b	0.0051869727
64	0xbd342f32	-0.04399032
65	0x3d01a251	0.031648938
66	0x3da9512a	0.08267434
67	0x3d26f241	0.040758375
68	0x3d1f78dc	0.03893362
69	0x3d410528	0.047124058
70	0x3c82bdf2	0.015959714
71	0x3d99379b	0.07481309
72	0x3cea0347	0.028566016
73	0xbc438f92	-0.011936085
74	0x3d2b5485	0.04182865
75	0xbcd50a69	-0.02600594
76	0x3c1b4250	0.009476259
77	0xbdcbdec2	-0.09954597
78	0x3d945219	0.072422214
79	0xbcd153c3	-0.025552636
80	0x3c48923c	0.012241896
81	0x3daa3565	0.083109654
82	0x3d7f573a	0.062339045
83	0xbde6511c	-0.11245939
84	0xbca10441	-0.019655349
85	0x3d16f992	0.036859103
86	0xbdb53337	-0.08847659
87	0xbdad7239	-0.08469052
88	0xbd85d8fa	-0.065355256
89	0xbd95e4c0	-0.07319021
90	0xbc8b8614	-0.017031707
91	0xbd8d6f41	-0.069059856
92	0x3d9a5646	0.075359866
93	0x3dba68e3	0.09102037
94	0xbc9d900e	-0.01923373
95	0xbdbd7b5a	-0.09252043
96	0xbcd8b3bc	-0.026452892
97	0x3d518c85	0.0511594
98	0xbcb4de37	-0.022078617
99	0xbd9586d0	-0.07301104
100	0x3da1726e	0.07883154
101	0x3cde70a2	0.027153317
102	0xbcddcae1	-0.02707428
103	0xbc8dd3ae	-0.01731285
104	0xbc8dbed5	-0.01730291
105	0xbd714fc5	-0.058913965
106	0x3c915f0e	0.01774552
107	0x3da8bf2c	0.08239588
108	0xbd34bfeb	-0.04412834
109	0x3b6ea205	0.003641249
110	0x3b782b13	0.003786747
111	0xbd79fdc0	-0.06103301
112	0xbdf6a39b	-0.12042924
113	0x3e020919	0.12698783
114	0x3cdf2c4f	0.027242808
115	0xbca8c8eb	-0.020603618
116	0xbd869952	-0.06572212
117	0xbc81dec4	-0.015853293
118	0x3d9a6960	0.0753963
119	0x3c2e0716	0.010621807
120	0x3de77a2d	0.113026
121	0xbd9b55fe	-0.07584761
122	0xbdd3ed7b	-0.1034803
123	0xbc8be688	-0.0170777
124	0xbcbead85	-0.0232761
125	0x3e095de1	0.13414718
126	0x3db7e317	0.08978861
127	0x3d6e4d9b	0.05817948
128	0x3dbca3fe	0.092109665
129	0xbd90f181	-0.07077313
130	0x3b9017eb	0.0043973825
131	0xbdea3808	-0.11436468
132	0x3d15c334	0.036563113
133	0x3adc3c5d	0.0016802658
134	0x3c79f44e	0.015256001
135	0xbc6d0230	-0.014465854
136	0xbc3da9b7	-0.011576108
137	0x3e24fb62	0.1611152
138	0xbcf544c9	-0.029940026
139	0xbd4bb7c7	-0.04973581
140	0x3dc6d91a	0.097093776
141	0xbcff9c92	-0.031202588
142	0x3d109adc	0.035303935
143	0xbd4c6d60	-0.049908996
144	0x3d8a7332	0.06760253
145	0xbde3e4dc	-0.11127636
146	0xbdedb75a	-0.11607237
147	0x3d26449f	0.040592786
148	0xbcc3cb5d	-0.023900682
149	0xbdc41874	-0.095749766
150	0x3bec8f11	0.0072192033
151	0x3d05f8de	0.03270804
152	0xbc52eb17	-0.012873433
153	0xbdab6f95	-0.08370892
154	0x3d949da4	0.0725663
155	0x3dae5866	0.085129544
156	0x3de511b8	0.1118502
157	0xbb27d583	-0.002560944
158	0x3d392689	0.045202766
159	0x3d8920af	0.06695687
160	0xbdaeb84b	-0.08531245
161	0x3d8eca74	0.069722086
162	0x3d9f6faf	0.07784974
163	0x3d696dac	0.056989357
164	0xbca5ca08	-0.020237938
165	0xbd61a8b7	-0.05509254
166	0x3dbe60c2	0.09295799
167	0xbdd46f5a	-0.10372801
168	0x3d759bc9	0.05996302
169	0xbc7fbc4d	-0.015608859
170	0x3d09d0eb	0.033646505
171	0x3d5262c2	0.051363714
172	0x3d725c99	0.05917034
173	0xbd8c9ae7	-0.06865483
174	0x3d18de92	0.037321635
175	0xbd8554d2	-0.06510319
176	0xbdbaf17d	-0.091280915
177	0xbaf755e3	-0.0018870201
178	0x3ce971f5	0.028496722
179	0xbc8bd06e	-0.01706716
180	0xbca2dd44	-0.019880898
181	0xbdaebc61	-0.08532024
182	0x3db514ee	0.08841883
183	0xbb990f90	-0.0046710446
184	0xbdbe9a79	-0.09306807
185	0x3cd672a1	0.026177706
186	0xbd9be356	-0.0761172
187	0xbd5e57cd	-0.054282952
188	0xbbf8f8f9	-0.007598039
189	0x3ca4609a	0.020065594
190	0x3d518b4d	0.05115824
191	0xbdc013ac	-0.09378752
192	0xbd251a8a	-0.040308513
193	0xbd4106e2	-0.047125705
194	0x3d3c7d94	0.046018198
195	0xbd087591	-0.033315245
196	0x3d43af02	0.047774322
197	0xbd900201	-0.07031632
198	0xbd84ca3b	-0.06483885
199	0xbcdf8755	-0.027286211
200	0xbd9171f6	-0.071018144
201	0xbdb774eb	-0.08957847
202	0x3daa96d1	0.08329547
203	0x3d6cf053	0.05784638
204	0x3cbeb8f0	0.023281544
205	0x3d494078	0.049133748
206	0x3d9841e3	0.07434442
207	0x3c78afd4	0.015178639
208	0x3c8fb427	0.017541958
209	0x3dbe8efe	0.09304617
210	0x3a1c9dec	0.000597446
211	0xbd96ff87	-0.07372957
212	0x3b9016da	0.0043972554
213	0xbc29cde5	-0.0103640305
214	0xbd65cade	-0.056101672
215	0x3dc504bb	0.09620043
216	0x3c715462	0.014729591
217	0xbdd90692	-0.10596956
218	0xbd48d3ef	-0.04903024
219	0x3d8d906f	0.06912314
220	0xbd2e114c	-0.042496964
221	0x3c8c7f7a	0.01715063
222	0xbdca9031	-0.098907836
223	0xbd48cd01	-0.049023632
224	0xbd9ff23c	-0.078098744
225	0x3a77ab3f	0.000944782
226	0xbc4e407b	-0.0125886155
227	0x3d89f42d	0.06736026
228	0xbd9564e4	-0.07294634
229	0xbdbb556f	-0.091471545
230	0x3d854f6c	0.06509289
231	0x3ce69de5	0.028151462
232	0xbdd1d35e	-0.10245393
233	0xbb5a5e98	-0.0033320542
234	0xbda0b331	-0.07846678
235	0x3c49e3fe	0.012322424
236	0xbd6b3e87	-0.057432678
237	0xbd77ebbd	-0.060527552
238	0xbc24d0fe	-0.010059593
239	0xbd9162ce	-0.070989236
240	0xbc7be0db	-0.015373434
241	0xbd844afc	-0.06459615
242	0x3d47925f	0.048723575
243	0x3d737b6f	0.059443887
244	0x3d8940aa	0.06701787
245	0xbdab1bbf	-0.083549015
246	0x3cb4ef4c	0.022086762
247	0x3cdf6269	0.027268605
248	0xbd6a8d23	-0.057263505
249	0xbcfef77e	-0.031123873
250	0xbd717690	-0.05895096
251	0xbd52da59	-0.051477764
252	0x3da62197	0.081118755
253	0xbd10d875	-0.03536268
254	0x3d0441ef	0.03228944
255	0x3c6c7f72	0.014434682

layers.0.node_message_mlp.0.bias f4 [50]
0	0x3ce62277	0.028092606
1	0x3ca53a26	0.020169329
2	0x3c8228a2	0.015888516
3	0x3c90f4cf	0.017694859
4	0x3cca67ba	0.024707664
5	0x3ccc2b79	0.024923073
6	0x3d70af21	0.058760766
7	0x3da300d8	0.07959145
8	0xbd2abb03	-0.041682255
9	0x3d4277c7	0.04747751
10	0x3d21dd31	0.039517585
11	0x3d2a52de	0.041582935
12	0xbd5ce0ee	-0.053925447
13	0xbd521d0a	-0.051297225
14	0xbcea0d29	-0.028570728
15	0x3ca3f024	0.020011969
16	0xbd34bc79	-0.044125054
17	0x3c1fbc4f	0.009749486
18	0x3d1f8904	0.038949028
19	0x3d5251c1	0.051347498
20	0xbd4b56da	-0.049643375
21	0x3dd715a8	0.105021775
22	0xbd65a71c	-0.05606757
23	0xbbbf4dac	-0.0058381166
24	0x3dc9dd59	0.09856672
25	0x3d891199	0.066928096
26	0x3d836478	0.06415647
27	0xbdbdcedd	-0.09267972
28	0xbc73d456	-0.014882168
29	0x3d13d1a8	0.036088616
30	0x3c2151b7	0.0098461425
31	0x3b5bb04f	0.0033521836
32	0xbd4ed7de	-0.050498836
33	0x3d3aea3b	0.045633536
34	0x3d96944b	0.073525034
35	0x3d958d22	0.073023096
36	0x3c9540c9	0.018219369
37	0xbd9f1c1d	-0.07769034
38	0xbd143de6	-0.036191843
39	0x3a8ae5a0	0.0010596998
40	0xbde65fed	-0.11248765
41	0x3db41d9f	0.08794712
42	0x3d12cca3	0.035839688
43	0xbd9017ec	-0.07035813
44	0x3b888805	0.0041666054
45	0x3d3cb15e	0.046067588
46	0xbd5b892e	-0.05359762
47	0xbd86c6e6	-0.065809056
48	0xbd8aff7b	-0.0678701
49	0x3dad4bd9	0.084617324

layers.0.node_message_mlp.2.weight f4 [50, 50]
0	0x3cbea9a1	0.023274245
1	0xbcb5ef21	-0.022208752
2	0xbd4ee220	-0.05050862
3	0x3d23a8ce	0.039955907
4	0x3d6b1a4f	0.057398137
5	0xbd077548	-0.033070832
6	0x3d40c606	0.04706385
7	0x3db896df	0.090131514
8	0xbd8de499	-0.06928367
9	0xbe52cdd4	-0.2058633
10	0x3d59b318	0.053149313
11	0x3e09e3ac	0.13465756
12	0x3d894eba	0.06704469
13	0xbda64821	-0.08119226
14	0xbd2c429c	-0.04205571
15	0xbdba34a1	-0.090920694
16	0xbdebf4b0	-0.1152128
17	0xbe558e71	-0.20855118
18	0x3d845d91	0.06463159
19	0x3db47c92	0.088128224
20	0x3df76542	0.1207986
21	0xbdc9782f	-0.09837376
22	0xbc41b467	-0.011822796
23	0x3b839d20	0.0040165335
24	0x3cc97adc	0.024594717
25	0xbdec1d17	-0.11528986
26	0x3de859d2	0.11345257
27	0xbdb51627	-0.08842116
28	0xbe020487	-0.1269704
29	0xbd787842	-0.06066156
30	0x3dcef688	0.10105616
31	0xbde947e4	-0.11390665
32	0x3e31bcbd	0.17357154
33	0xbd89eb4e	-0.06734334
34	0xbd924e63	-0.07143857
35	0xbc92dfd3	-0.017928993
36	0x3da859ce	0.08220254
37	0x3cec74f6	0.028864365
38	0x3d676dff	0.056501385
39	0x3cd7669a	0.026294041
40	0x3d2b9d3a	0.04189799
41	0xbd9596d3	-0.07304158
42	0xbdb13632	-0.08652915
43	0x3cf0a2ec	0.029374562
44	0x3e3244a5	0.17408998
45	0xbcdf9cb6	-0.027296405
46	0xbdb69610	-0.08915341
47	0x3d0a71ba	0.033799864
48	0xbdaf5495	-0.085610546
49	0x3cc764eb	0.024340114
50	0xbcb02263	-0.021500772
51	0x3acb162d	0.001549428
52	0x3cb8c601	0.022555353
53	0xba8be8c9	-0.0010674234
54	0x3db81e10	0.08990109
55	0x3d2d4b36	0.042308055
56	0x3ca7e647	0.020495547
57	0xbc63a4a8	-0.013894238
58	0xbe34336d	-0.17597742
59	0xbe67726a	-0.22602239
60	0xbd8e3c01	-0.069450386
61	0x3c9b352d	0.018946255
62	0x3daa43be	0.08313702
63	0x3d2e16f9	0.042502377
64	0x3c90cfe6	0.017677259
65	0xbddc10a7	-0.10745364
66	0xbd9dfcf5	-0.07714263
67	0xbde1a494	-0.11017719
68	0x3d1bb067	0.038010027
69	0x3ca7fdfe	0.020506855
70	0xbe0107ee	-0.12600681
71	0x3d1d4179	0.038392518
72	0x3d817ac7	0.06322246
73	0xbdfd39e2	-0.12364556
74	0xbd578b85	-0.05262329
75	0xbdd1c75e	-0.102431044
76	0xbdeff7e7	-0.117172055
77	0xbe282698	-0.16420972
78	0xbdd49a4d	-0.10380993
79	0x3cb7fd0a	0.022459526
80	0xbe4f6153	-0.2025197
81	0xbe048d59	-0.12944545
82	0xbe07c823	-0.1325994
83	0xbd204c35	-0.039135177
84	0xbe17734a	-0.14790073
85	0x3b29a73b	0.002588703
86	0x3dc2c05a	0.095093444
87	0x3e0f82e1	0.1401477
88	0xbda0d5cf	-0.07853281
89	0xbdacba4f	-0.08433973
90	0x3dc73dad	0.097285606
91	0x3d68937a	0.05678127
92	0xbdcb779b	-0.09934922
93	0x3da690ce	0.08133088
94	0x3e773b4f	0.24143718
95	0xbd860ccf	-0.06545412
96	0x3ccaae17	0.024741216
97	0xbb92c528	-0.0044790693
98	0xbe03a243	-0.12854867
99	0xbe447832	-0.19186476
100	0x3a5bf644	0.00083908834
101	0x3d35e8ad	0.04441135
102	0xbdbaf703	-0.09129145
103	0xbd0c6143	-0.034272444
104	0xbd8c4421	-0.06848932
105	0x3def1424	0.116737634
106	0xbd9190c2	-0.071076885
107	0x3d9c5c9d	0.07634852
108	0xbcd13a2c	-0.025540434
109	0x3d52f843	0.051506292
110	0x3e432d4d	0.1906025
111	0xbddf038e	-0.1088935
112	0x3e4d5ec2	0.20055678
113	0xbdbafe9a	-0.09130593
114	0xbe04e6dc	-0.12978691
115	0x3daf4227	0.085575394
116	0xbdbf6230	-0.093449
117	0xbc5545ff	-0.013017177
118	0x3ddaae17	0.10677736
119	0x3d95bc83	0.073113464
120	0xbde010d3	-0.10940709
121	0xbb978f1d	-0.0046252147
122	0x3d3cb74e	0.04607325
123	0xbe032a35	-0.1280907
124	0x3db48c6d	0.088158466
125	0x3d9ba73c	0.07600257
126	0xbdafb19b	-0.085787974
127	0x3a8198f7	0.0009887506
128	0x3a9e52f1	0.0012079162
129	0xbdcc822e	-0.09985767
130	0xbdc2732d	-0.09494624
131	0xbc2393c7	-0.009983963
132	0xbc99f9b8	-0.018795833
133	0xbc8f80f6	-0.017517548
134	0xbcb4d501	-0.022074224
135	0xbcac5c39	-0.021040069
136	0x3c7fdba0	0.0156163275
137	0xbd011eb4	-0.03152342
138	0xbd14c063	-0.036316287
139	0x3d124ddc	0.035718784
140	0xbd3e0486	-0.046391033
141	0x3cac4949	0.021031039
142	0x3d956df2	0.07296361
143	0x3dd83949	0.10557801
144	0xbe1e8be1	-0.15483047
145	0xbcb67d4a	-0.02227654
146	0xbc99fc18	-0.018796965
147	0x3dbbcbcb	0.0916973
148	0x3e0b6ca1	0.13615657
149	0x3e0d90ae	0.13824722
150	0x3d6fa490	0.05850655
151	0xbdd777a6	-0.10520868
152	0x3dff3954	0.12462106
153	0xbd4181e7	-0.047243025
154	0x3d47c92d	0.04877584
155	0xbda8c25f	-0.08240198
156	0x3c9702c7	0.018433942
157	0xbd594326	-0.053042553
158	0x3e23db0b	0.16001527
159	0x3e1b5218	0.15168035
160	0xbd124834	-0.03571339
161	0x3d5f41db	0.054506164
162	0x3d892e48	0.066982806
163	0x3dd81397	0.105506115
164	0xbdd7484b	-0.10511836
165	0xbc54d650	-0.012990549
166	0xbe0df315	-0.1386226
167	0xbd1f7768	-0.038932234
168	0xbdb9fef3	-0.09081831
169	0x3dae1f18	0.085020244
170	0xbd68735f	-0.05675065
171	0xbd5f9923	-0.054589402
172	0xbe16d615	-0.14730103
173	0x3decb021	0.115570314
174	0xbe0fa930	-0.14029384
175	0xbd310a7b	-0.043222886
176	0x3d7ce8a3	0.061745297
177	0x3de2f68e	0.11082183
178	0x3e161f25	0.14660318
179	0x3e178e4c	0.14800376
180	0xbd4b3b2a	-0.04961697
181	0x3ddeb8db	0.10875102
182	0x3e5a5ae7	0.21323739
183	0xbd409bda	-0.04702363
184	0x3e037719	0.12838401
185	0xbcb1c2ad	-0.021699274
186	0xbd96bf7a	-0.0736074
187	0xbd406c3f	-0.04697823
188	0x3db18b55	0.086691536
189	0xbd9e7118	-0.07736415
190	0xbd79fe13	-0.06103332
191	0x3d2f2548	0.042760164
192	0x3dd2562a	0.10270341
193	0x3dc4e183	0.096133254
194	0xbcc3fa84	-0.023923166
195	0x3d3fd9c9	0.046838555
196	0xbd2a3cb2	-0.04156179
197	0x3d8ca306	0.06867032
198	0x3c6d5134	0.014484692
199	0x3e479ef7	0.19494234
200	0x3d456e00	0.048200607
201	0x3d4efd7b	0.050534707
202	0x3d865469	0.06559069
203	0xbc51d030	-0.012805983
204	0xbe21de64	-0.15807492
205	0x3b943a56	0.0045235557
206	0xbd4247e2	-0.047431834
207	0xbe089464	-0.13337857
208	0xbd540c32	-0.051769443
209	0xbbba57b1	-0.005686723
210	0x3e1bb9e9	0.15207638
211	0xbd777335	-0.060412604
212	0x3e0b18ba	0.13583651
213	0x3d3b40f6	0.04571625
214	0xbe22026f	-0.15821241
215	0x3ca161b8	0.019699916
216	0xbdbd6545	-0.09247831
217	0xba4adc15	-0.0007738483
218	0x3ddf365b	0.10899039
219	0xbe402428	-0.18763793
220	0xbdf975ed	-0.12180696
221	0x3d7856f5	0.060629804
222	0x3d531664	0.051535025
223	0x3dc43091	0.09579576
224	0xb8e89067	-0.00011089519
225	0xbd9007a3	-0.070327066
226	0xbd0aeb29	-0.033915672
227	0x3dd53424	0.10410336
228	0xbda68286	-0.08130364
229	0x3dadd7a0	0.08488393
230	0xbd2731ae	-0.040818863
231	0xbd1b0830	-0.037849605
232	0xbe279e79	-0.16369046
233	0x3db85fe9	0.090026684
234	0x3cbe3716	0.023219626
235	0x3e0419d3	0.12900476
236	0x3d4bdeaf	0.049772914
237	0x3d440e3f	0.04786515
238	0xbdf0d6fc	-0.11759755
239	0x3cdad414	0.026712455
240	0x3e19b603	0.15010838
241	0xbda269e9	-0.07930357
242	0xbca42031	-0.020034881
243	0x3b4e0198	0.0031434055
244	0xbd575ee3	-0.052580725
245	0xbdbc190d	-0.091844656
246	0x3d52d318	0.051470846
247	0x3c852f04	0.01625777
248	0xbdfbf899	-0.123032756
249	0x3ddfd0be	0.10928486
250	0x3c8c35f3	0.017115569
251	0xbdbc503c	-0.09194991
252	0xbde8af12	-0.11361517
253	0x3ccef53e	0.025263425
254	0x3cb28d31	0.021795841
255	0x3ddb58c7	0.10710292

layers.0.node_message_mlp.2.bias f4 [50]
0	0x3dade528	0.08490974
1	0x3d02a249	0.03189305
2	0x3d22f362	0.03978289
3	0xbd544a8f	-0.051828917
4	0xbd1af8c5	-0.0378349
5	0x3db68931	0.08912886
6	0x3db0bba7	0.08629542
7	0xbdf862fa	-0.12128253
8	0xbbb46176	-0.0055047823
9	0x3d3788f7	0.044808354
10	0xbce138cf	-0.027492909
11	0x3d209a5a	0.0392097
12	0xbe02a0d5	-0.12756665
13	0x3c1ae133	0.009453106
14	0xbd350d55	-0.044202168
15	0x3ba1ab18	0.004933726
16	0xbc877829	-0.016536789
17	0xbcff4578	-0.031161055
18	0xbda1abdf	-0.0789411
19	0x3debf35b	0.11521026
20	0x3d99c524	0.07508305
21	0x3e060047	0.13086043
22	0x3d807460	0.06272197
23	0x3df0821f	0.11743569
24	0xbd915ed8	-0.07098168
25	0x3de676e2	0.11253144
26	0x3de95fdb	0.11395236
27	0xbc4081b8	-0.011749677
28	0x3d19e478	0.0375714
29	0x3bc5252f	0.0060163955
30	0x3c396bfd	0.01131725
31	0xbce4e22f	-0.027939884
32	0x3d308447	0.0430949
33	0xbdb51cd0	-0.08843386
34	0x3cd2489a	0.025669385
35	0x3d4f21cb	0.050569337
36	0x3d83588c	0.06413373
37	0xbb33cdef	-0.0027435978
38	0x3d34a1df	0.044099685
39	0x3d6fa66d	0.058508325
40	0xbc124ea4	-0.008929882
41	0xbc6c4b24	-0.014422212
42	0x3bb8d820	0.0056409985
43	0xbdc3d3aa	-0.09561856
44	0xbd92956e	-0.07157408
45	0x3dcb05e3	0.09913232
46	0xbd5258f8	-0.05135438
47	0x3c178afb	0.009249444
48	0xbe1090e3	-0.1411777
49	0x3dbe1167	0.09280663

layers.0.node_update_mlp.0.weight f4 [50, 150]
0	0xbdfa1523	-0.12211063
1	0x3cd6da12	0.02622703
2	0x3dbc3a42	0.09190799
3	0xbdac279e	-0.08405994
4	0xbd3754e9	-0.04475871
5	0xbd871bc7	-0.06597095
6	0x3b002460	0.0019552931
7	0x3c086e4d	0.008327079
8	0x3d3a9b9e	0.045558564
9	0x3d04954e	0.03236895
10	0xbde3ff9f	-0.1113274
11	0xbcaf7502	-0.021418098
12	0xbe146941	-0.14493276
13	0xbd8c8d93	-0.06862941
14	0xbd14f150	-0.036362946
15	0xbd686613	-0.05673797
16	0x3d4a1cff	0.04934406
17	0x3d438472	0.04773373
18	0x3d0a5d11	0.03378016
19	0x3cf7b1f2	0.030236218
20	0x3d75b673	0.05998845
21	0xbd8d19aa	-0.06889661
22	0xbcbf2309	-0.023332136
23	0x3cc59fe1	0.024124088
24	0xbce4373a	-0.027858365
25	0x3dd0f63e	0.10203217
26	0x3d1fe852	0.039039917
27	0xbd67df15	-0.056609232
28	0xbde841f5	-0.11340705
29	0x3e2c84fb	0.16847603
30	0xbc7b6ffa	-0.0153465215
31	0x3d324bbb	0.043529253
32	0xbd8f0d93	-0.06985011
33	0xbd728459	-0.059208248
34	0xbd829947	-0.063768916
35	0x3ca4fbe5	0.020139644
36	0x3d2ac251	0.04168922
37	0xbbffb49c	-0.0078035127
38	0xbcb35605	-0.021891603
39	0x3d457740	0.04820943
40	0x3d2afda6	0.041745804
41	0x3c89096e	0.01672813
42	0xbc90c347	-0.01767124
43	0xbce9199e	-0.028454598
44	0xbc96af87	-0.018394245
45	0x3d9c2584	0.07624343
46	0xbd80c046	-0.06286673
47	0x3d9e4e2d	0.077297546
48	0x3d1604ea	0.03662578
49	0xbd8f2a56	-0.06990497
50	0x3c51b024	0.012798343
51	0xbd94ea3c	-0.07271239
52	0x3c2d736f	0.010586604
53	0x3ceccf6e	0.028907504
54	0xbc2cb854	-0.010541994
55	0x3c988006	0.018615734
56	0x3c9f65cf	0.019457726
57	0xbba3a59a	-0.0049941065
58	0x3ccc9e6e	0.024977889
59	0xbc161136	-0.009159377
60	0x3e13f5a8	0.14449179
61	0x3dedd95b	0.11613723
62	0xbc92f015	-0.017936746
63	0x3dad2a2a	0.08455308
64	0xbc8c3b07	-0.01711799
65	0x3cbaa440	0.022783399
66	0xbd67d784	-0.056602016
67	0xbd00be4b	-0.031431478
68	0x3c0b1533	0.008488941
69	0x3ce0dc96	0.027448934
70	0x3dd86d7b	0.10567757
71	0x393b2e60	0.00017850986
72	0x3c8eda9f	0.017438231
73	0xbb5fde0c	-0.003415945
74	0xbcbee7fc	-0.023303978
75	0x3aafaf5f	0.0013403705
76	0xbc6b0ba7	-0.01434604
77	0xbd8164de	-0.06318067
78	0x3da551fd	0.08072279
79	0x3c95ca90	0.018285066
80	0x3dbacb87	0.09120851
81	0x3d70d818	0.058799833
82	0x3c20ee1e	0.009822397
83	0x3c957eb7	0.018248899
84	0x3d0d7ab2	0.03454084
85	0xbb03d044	-0.002011315
86	0x3cd6bf24	0.02621419
87	0x3cd9c37e	0.026582476
88	0x3dfcc9b8	0.12343162
89	0xbe15d2ca	-0.14631191
90	0xbd414b4c	-0.04719095
91	0x3db4bbcb	0.08824881
92	0xbd60c38a	-0.05487398
93	0xbabb0e2a	-0.0014271189
94	0x3d81f311	0.06345189
95	0xbd3ec708	-0.04657653
96	0x3d708b61	0.058726672
97	0x3dc521ef	0.09625613
98	0xbde470cf	-0.11154329
99	0x3cf50963	0.029911702
100	0x3d9b0dbe	0.075709805
101	0x3c2199a3	0.00986329
102	0xbd3a1b1c	-0.04543601
103	0x3d23707e	0.039902203
104	0x3bcf5dd5	0.0063283243
105	0x3ab39e26	0.0013703748
106	0x3d38cbd6	0.045116268
107	0xbcdb3287	-0.026757492
108	0x3da43c02	0.08019258
109	0x3c101cde	0.008795945
110	0x3d80f762	0.062971845
111	0x3c92fc9d	0.017942721
112	0xbd3cef7e	-0.046126835
113	0xbd7d958e	-0.061910205
114	0x3c9222cb	0.017838856
115	0xbc04d859	-0.008108222
116	0xbcbf81a9	-0.023377256
117	0xbd6a04bc	-0.05713342
118	0xbd74075c	-0.05957733
119	0x3d893ae1	0.067006834
120	0xbca06aa3	-0.019582098
121	0xbd953029	-0.072845764
122	0xbd5b3358	-0.053515762
123	0x3cb5deae	0.022200909
124	0xbbd0dc1e	-0.0063738963
125	0xbd004f2e	-0.03132551
126	0xbd8493e2	-0.06473519
127	0xbd0067fb	-0.031349164
128	0xbced65d3	-0.028979218
129	0x3d0aa3cd	0.03384762
130	0xbd7e2557	-0.06204733
131	0x3cfad6a9	0.030619936
132	0xbce20e0e	-0.027594592
133	0x3cd21ac1	0.025647523
134	0x3da6a1c9	0.08136327
135	0x3c9545f6	0.018221837
136	0xbd37331b	-0.044726472
137	0x3d0d5e39	0.034513686
138	0x3cfb5858	0.030681774
139	0xbd88514f	-0.066561334
140	0xbd818c61	-0.06325603
141	0x3c150eaf	0.009097739
142	0x3d8213ae	0.0635141
143	0x3d122468	0.03567925
144	0x3d928061	0.071533926
145	0xbd9eb3d2	-0.07749142
146	0xbca652ee	-0.020303216
147	0x3d5905fe	0.05298423
148	0x3d013cad	0.031552006
149	0x3c84bfac	0.016204678
150	0xbc0598ac	-0.008154076
151	0xbddcb951	-0.10777534
152	0x3c648f2d	0.013950151
153	0x3c1d1952	0.009588556
154	0xbd3ffd17	-0.046872225
155	0x3d8ab22d	0.067722656
156	0xbda46568	-0.08027154
157	0xb93dd7b6	-0.00018104803
158	0xbc47bf6d	-0.012191636
159	0x3de536e5	0.11192111
160	0xbd1322f7	-0.035922017
161	0xbd6819b7	-0.05666515
162	0x3d46eebf	0.04856753
163	0xbd9e5361	-0.07730747
164	0x3d02dac0	0.031946898
165	0x3c5ecbe4	0.013598416
166	0xbc3662c6	-0.011131948
167	0xbd177e19	-0.03698549
168	0xbcda0be9	-0.026617007
169	0x3c03b021	0.008037598
170	0xbd585f54	-0.052825287
171	0xbdc53cd4	-0.09630743
172	0xbdc0f3e5	-0.09421519
173	0x3dc84db9	0.097804494
174	0xbc8846d9	-0.016635345
175	0x3d92b877	0.0716409
176	0x3c17fd6d	0.00927673
177	0x3c92edd9	0.01793568
178	0xbc0a55d0	-0.008443311
179	0xbdbf35d3	-0.09336438
180	0xbcb67a75	-0.022275189
181	0xbcadfd42	-0.021238927
182	0xbd218def	-0.039442
183	0xbd491af2	-0.049097963
184	0xbd44aa1e	-0.0480138
185	0xbd6078ea	-0.054802813
186	0xbda0d42d	-0.07852969
187	0x3d706099	0.058685873
188	0xbdd393c4	-0.103309184
189	0x3daead6c	0.08529171
190	0x3d2b9406	0.041889213
191	0x3cb43725	0.021998951
192	0x3a5f9eb5	0.0008530424
193	0xbd83aba5	-0.06429223
194	0x3d85a842	0.06526233
195	0x3cb64693	0.02225045
196	0x3d2acb91	0.041698042
197	0xbd70e78e	-0.058814578
198	0xbd17ee02	-0.037092216
199	0x3d6030d3	0.054734062
200	0xbd496989	-0.04917291
201	0xbca3a4ff	-0.019976137
202	0xbd21bb99	-0.039485548
203	0xbd5076bc	-0.050894484
204	0xbcd41c77	-0.02589248
205	0x3c0e1718	0.008672498
206	0xbc1329b9	-0.008982115
207	0x3d0c7a13	0.034296107
208	0xbdcdb548	-0.10044342
209	0x3cda5b65	0.026654908
210	0xbc3f0ec2	-0.011661233
211	0x3c7760aa	0.01509873
212	0xbd768f7c	-0.06019543
213	0xbccbe3bf	-0.024888871
214	0xbc65cc59	-0.014025771
215	0x3cbf795f	0.023373304
216	0x3ce1079f	0.027469454
217	0xbc54bcd6	-0.012984475
218	0x3c9dcef9	0.019263731
219	0xbdabf799	-0.08396835
220	0xbc45c51f	-0.012070923
221	0xbc9a7bc8	-0.018857852
222	0x3d1b4c26	0.037914418
223	0x3da1c16d	0.07898221
224	0x3da6f469	0.08152086
225	0xbd054d6a	-0.03254453
226	0xbd5d8155	-0.05407842
227	0xbd8db730	-0.06919706
228	0x3d30e7e1	0.043189887
229	0xbc006a32	-0.007837819
230	0x3d812f73	0.06307878
231	0xbd1d9ea1	-0.03848136
232	0xbc97fae0	-0.018552244
233	0xbda95c00	-0.08269501
234	0xbd171e9c	-0.036894426
235	0x3cb05144	0.021523125
236	0x3d7cd386	0.061725162
237	0xbc6a93d8	-0.014317475
238	0xbbc60f32	-0.006044292
239	0xbdc4191d	-0.095751025
240	0x3d14f550	0.03636676
241	0xbd7e99af	-0.062158283
242	0xbcf25062	-0.029579345
243	0x3df33366	0.11875038
244	0xbd9254e6	-0.07145099
245	0x3d59df0c	0.05319123
246	0x3ba5ebbc	0.005063502
247	0x3cbc02b8	0.022950515
248	0x3d2981d5	0.041383583
249	0xbd66e841	-0.05637384
250	0x3c892ded	0.016745532
251	0x3d8ad1b3	0.06778278
252	0x3d4b8675	0.049688775
253	0x3d3c94d5	0.046040375
254	0xbd98d2af	-0.0746206
255	0x3cf47577	0.029841168

layers.0.node_update_mlp.0.bias f4 [50]
0	0xbd44dd25	-0.048062462
1	0x3b87e97c	0.0041477066
2	0x3d6d6fb9	0.057967875
3	0xbd6920f1	-0.05691618
4	0x3d381007	0.04493716
5	0x3cf52b83	0.029927975
6	0xbc55baec	-0.013045054
7	0xbd3dee30	-0.04636973
8	0x3be9e2f6	0.0071376516
9	0x3d52b239	0.051439498
10	0xbdbc84cb	-0.09205016
11	0xbd8ce9e3	-0.06880548
12	0xbb53cbc0	-0.003231749
13	0x3d02472c	0.031806156
14	0xbd907bea	-0.07054885
15	0x3cfa0ca4	0.030523606
16	0xb8911585	-6.918147e-05
17	0x3c82f6c6	0.015986811
18	0x3c836900	0.016041279
19	0x3d6032bb	0.05473588
20	0x3b8e0e42	0.0043351958
21	0xbd2da1dc	-0.04239069
22	0xbd7baf68	-0.061446577
23	0x3cefd183	0.029274708
24	0xbdc047e8	-0.09388715
25	0x3def74d5	0.11692206
26	0x3ca3f957	0.020016355
27	0x3d9d3dd4	0.076778084
28	0xbdd252b0	-0.10269678
29	0x3ced3ec9	0.028960602
30	0xbd4df3a8	-0.050281197
31	0x3cfb15b2	0.030649994
32	0xbdc15e39	-0.094418
33	0x3d8f7988	0.07005602
34	0xbc26cc99	-0.010180616
35	0xbd8810d1	-0.066438325
36	0x3cd4c41e	0.025972422
37	0xbb3117f8	-0.0027022343
38	0xbd5a1df4	-0.05325122
39	0xbc3fcb48	-0.011706181
40	0x3b3b192a	0.0028548934
41	0xbb98cea2	-0.0046633044
42	0x3d9ca662	0.076489225
43	0xbda93867	-0.08262711
44	0xbdc52bf9	-0.09627528
45	0xbc9e2a24	-0.019307204
46	0xbbee5544	-0.007273348
47	0xb9decd56	-0.00042496127
48	0x3d11cb23	0.035594117
49	0x3d6a0c38	0.05714056

layers.0.node_update_mlp.2.weight f4 [50, 50]
0	0xbd507f43	-0.050902616
1	0xbe1b9504	-0.15193564
2	0xbdab46d4	-0.08363119
3	0xbceec4d5	-0.029146591
4	0xbd9b6869	-0.07588274
5	0x3d6db335	0.058032233
6	0xbe17a380	-0.14808464
7	0x3dc03ece	0.09386979
8	0x3ddc81cb	0.107669435
9	0x3d2ecce1	0.042675857
10	0x3d169fc8	0.036773473
11	0x3cb73264	0.022362895
12	0xbdb67383	-0.08908751
13	0x3d1758fc	0.036950096
14	0x3d3e0f54	0.046401337
15	0xbd9a56f3	-0.075361155
16	0x3d48a9f0	0.04899019
17	0xbe2e540e	-0.17024252
18	0xbdd90362	-0.10596348
19	0xbdc43203	-0.095798515
20	0xbdb3e5d1	-0.087840684
21	0x3cf5eaf6	0.030019265
22	0xbd70377e	-0.05864667
23	0xbe104f89	-0.1409284
24	0xbd9949d4	-0.07484785
25	0xbe5a8028	-0.2133795
26	0xbdfce925	-0.12349156
27	0xbd475f30	-0.048674762
28	0x3ce0a15c	0.027420692
29	0xbb609405	-0.0034267914
30	0xbcd5d51d	-0.026102597
31	0xbdbe3f21	-0.09289385
32	0x3dccab8a	0.09993656
33	0x3dadd8ad	0.08488593
34	0xbd382a89	-0.04496244
35	0xbd2c26c8	-0.042029172
36	0xbd03b26f	-0.03215259
37	0xbdc64c92	-0.096825734
38	0xbd01c848	-0.031685144
39	0x3ba51c59	0.0050387797
40	0x3e267f0d	0.16259404
41	0xbded84be	-0.11597584
42	0x3e1e4840	0.15457249
43	0x3d3e1403	0.046405803
44	0x3e276f05	0.16350944
45	0x3d4b3cce	0.049618535
46	0xbe2ef133	-0.17084198
47	0xbcf08cc0	-0.02936399
48	0x3d5e6d88	0.054303676
49	0x3d8878b5	0.06663648
50	0xbdf3e0e4	-0.11908129
51	0x3d8bb642	0.06821872
52	0xbd3a61f6	-0.04550358
53	0x3e02e20f	0.12781547
54	0x3d581e06	0.052763008
55	0x3d2fafe8	0.042892367
56	0x3d5c6eb0	0.053816497
57	0xbe107809	-0.1410829
58	0xbce79648	-0.028269902
59	0xbd25ff86	-0.04052689
60	0xbd0aded6	-0.03390392
61	0xbdd859e5	-0.10564021
62	0xbde74225	-0.11291913
63	0x3e1581f9	0.14600362
64	0x3cfb8f40	0.030707955
65	0x3e461062	0.19342187
66	0x3cafe3eb	0.021470984
67	0x3d2dacf2	0.04240126
68	0xbdc0d691	-0.09415925
69	0xbd226af5	-0.039652783
70	0xbb09b2e8	-0.0021011177
71	0xbd988cce	-0.07448731
72	0x3b3bca4a	0.002865451
73	0x3ded7f78	0.11596578
74	0xbe0696fd	-0.13143535
75	0x3e1b0158	0.15137231
76	0x3e010e2d	0.12603064
77	0xbdf44125	-0.11926488
78	0x3b914d5f	0.004434272
79	0xbd927743	-0.071516536
80	0xbe09647f	-0.13417242
81	0x3e1e7562	0.15474465
82	0xbdb68e6f	-0.08913886
83	0xbde63c89	-0.11242015
84	0xbd15688a	-0.03647665
85	0x3c823096	0.015892308
86	0x3d22db51	0.039759938
87	0xbd63dbd0	-0.05562955
88	0x3d01ca26	0.031686924
89	0xbde22f12	-0.11044134
90	0x3d12d650	0.035848916
91	0x3d8b2e38	0.06795925
92	0xbe1e062b	-0.1543204
93	0x3df52301	0.11969567
94	0xbd07281b	-0.032997232
95	0x3d2e807c	0.042603
96	0x3dcdb05b	0.10043403
97	0x3db40224	0.08789471
98	0xbdb94fb3	-0.090484045
99	0xbdf388ec	-0.1189135
100	0xbdc32e01	-0.09530259
101	0xbd3bb215	-0.04582413
102	0xbe0271ac	-0.12738675
103	0xbc116462	-0.008874031
104	0x3e06049c	0.13087696
105	0xbcf1a3e3	-0.029497093
106	0xbd90d609	-0.07072074
107	0xbd396995	-0.045266706
108	0xbd84d18d	-0.06485281
109	0xbde6484c	-0.11244258
110	0xbd094b76	-0.03351923
111	0x3e0acb5a	0.13554135
112	0xbe0074f8	-0.1254462
113	0xbd84eab1	-0.06490076
114	0x3da83347	0.082129054
115	0x3e81d334	0.25356448
116	0x3dfb0691	0.12257112
117	0x3e13acb7	0.14421354
118	0x3d94d865	0.072678365
119	0xbd92eac9	-0.07173688
120	0x3d961051	0.07327331
121	0x3c57984a	0.013158867
122	0x3d7841de	0.06060969
123	0xbc9de620	-0.019274771
124	0x3d0b67d3	0.03403456
125	0x3eb043ef	0.3442683
126	0xbcabdc5d	-0.0209791
127	0x39d35f40	0.00040316023
128	0xbde9adb4	-0.11410084
129	0xbcad7e74	-0.021178462
130	0x3d45b687	0.048269775
131	0x3c10c4e9	0.00883601
132	0x3de0ac86	0.10970406
133	0xbd3c68fb	-0.045998555
134	0x3df7e5d6	0.121043846
135	0xbda21bb1	-0.07915438
136	0x3d10bc1f	0.035335656
137	0xbca438c3	-0.020046597
138	0xbbda9341	-0.006670386
139	0x3d49a555	0.04922994
140	0xbdd4aac2	-0.10384132
141	0x3de0d26b	0.10977634
142	0xbdfe9452	-0.124306336
143	0xbda62ce3	-0.0811403
144	0x3db4845f	0.0881431
145	0xbd922c5e	-0.071373686
146	0x3e4d8f50	0.200742
147	0xbdc948c2	-0.098283306
148	0x3e310720	0.17287874
149	0x3d140e8f	0.036146697
150	0xbe05c39f	-0.13062905
151	0xbdd1dff1	-0.102477916
152	0x3d0a0c13	0.03370292
153	0x3d767488	0.060169727
154	0xbe19e379	-0.1502818
155	0xbdfbb3aa	-0.122901276
156	0x3d9342c0	0.07190466
157	0xbcb6c64b	-0.02231135
158	0x3d9a2d2f	0.07528149
159	0x3da7d3da	0.08194704
160	0xbd94ffdd	-0.072753645
161	0x3e0d3dc0	0.13793087
162	0xbe0de364	-0.13856274
163	0xbe170508	-0.14748013
164	0xbd218ff3	-0.03944392
165	0xbe1f3b05	-0.15549858
166	0xbdf4910d	-0.11941729
167	0xbcab6171	-0.020920487
168	0xbe37f83d	-0.17965789
169	0xbd1865fb	-0.03720663
170	0xbdce5b22	-0.10075976
171	0x3c902135	0.01759396
172	0xbd911a9e	-0.07085155
173	0xbd712950	-0.05887729
174	0x3bb3d63f	0.0054881866
175	0xbbeea195	-0.0072824457
176	0x3df5984b	0.11991938
177	0xbd6afb77	-0.05736872
178	0x3d2b5ae3	0.041834723
179	0xbe3e5e37	-0.18590628
180	0x3da5be4a	0.080929354
181	0xbde2ca33	-0.11073723
182	0x3dabbec4	0.08385995
183	0x3acf1978	0.0015800437
184	0xbd0c114b	-0.03419618
185	0x3d937f09	0.072019644
186	0xbd27e3b8	-0.040988654
187	0x3bb09eca	0.005390023
188	0x3d1d2c8e	0.03837257
189	0xbc763142	-0.015026392
190	0xbda3a3f1	-0.07990254
191	0x3d9b9ac1	0.07597876
192	0xbe12f7e1	-0.14352371
193	0xbd2a89ff	-0.04163551
194	0x3e0b81df	0.1362376
195	0xbca10ce9	-0.019659476
196	0xbe1f1ed7	-0.15539108
197	0xbe3b687b	-0.18301575
198	0x3c97cd96	0.018530648
199	0x3ca851f0	0.020546883
200	0xbdb95894	-0.09050098
201	0xbd9f9180	-0.07791424
202	0x3e08c196	0.13355097
203	0xbde3bd52	-0.11120094
204	0xbcd2623b	-0.025681606
205	0x3df6754b	0.120340906
206	0x3c961126	0.018318724
207	0xbd0b0186	-0.033937
208	0x3e06da93	0.13169317
209	0xbd9d8edc	-0.07693264
210	0xbd4ba4f9	-0.049717877
211	0x3b570847	0.003281133
212	0x3dd9f2e0	0.10642028
213	0xbdd4ce0b	-0.10390862
214	0x3d83c0f9	0.06433291
215	0x3e1dbe21	0.1540456
216	0x3dee81d8	0.116458595
217	0xbc12b305	-0.008953814
218	0x3d4a44d2	0.04938204
219	0xbdcac485	-0.099007644
220	0xbd39e767	-0.045386698
221	0x3e0c7a33	0.1371849
222	0x3d019add	0.03164183
223	0xbce264fa	-0.02763604
224	0xbded1f30	-0.11578214
225	0x3e4bcb77	0.19901834
226	0xbdec37ef	-0.11534106
227	0xbcb3d614	-0.021952666
228	0x3d935b06	0.07195096
229	0xbe0c66a5	-0.13711031
230	0x3e17afd9	0.14813174
231	0x3df40e35	0.11916772
232	0x3dbcaa58	0.09212178
233	0x3e1c3355	0.15253957
234	0xbdd74704	-0.10511592
235	0x3c908f44	0.01764644
236	0xbd64744a	-0.055774964
237	0xbd93be7e	-0.07214068
238	0xbc500d54	-0.01269849
239	0xbdd5ba18	-0.10435885
240	0xbdb9cd28	-0.090723336
241	0xbdc29fdb	-0.09503146
242	0xbd2ade84	-0.041716114
243	0x3e043b29	0.12913193
244	0xbe2b5f92	-0.16735676
245	0x3d94ee4b	0.07272013
246	0x3cae9af1	0.021314116
247	0x3db0b4cc	0.08628234
248	0x3d468680	0.048468113
249	0x3dde3af4	0.10851088
250	0xbe03479a	-0.12820283
251	0xbdedc81f	-0.11610436
252	0x3dd88fcd	0.10574303
253	0xbd21029b	-0.039309125
254	0xbd57db5e	-0.05269944
255	0xbe0d4081	-0.13794138

layers.0.node_update_mlp.2.bias f4 [50]
0	0xbd30c69f	-0.04315817
1	0x3da5e0f9	0.08099551
2	0xbdf83b69	-0.121207066
3	0x3df10f0f	0.1177045
4	0xbd3340fa	-0.04376314
5	0xbd959f50	-0.07305777
6	0xbe2cae27	-0.16863309
7	0xbdd8a38f	-0.10578071
8	0x3db43f7b	0.088011704
9	0x3d7f9805	0.062400836
10	0x3dd1cbd7	0.102439575
11	0xbe135c14	-0.14390594
12	0x3c0c1883	0.008550766
13	0xbcf5d041	-0.03000653
14	0x3d30b091	0.043137137
15	0x3b77dc66	0.0037820577
16	0xbde2a1a0	-0.11065984
17	0xbdd997f7	-0.10624688
18	0x3df7e015	0.12103287
19	0x3debdba7	0.11516505
20	0x3c8be875	0.017078618
21	0xbd6cafc7	-0.05778482
22	0xbdf7c22f	-0.120975845
23	0xbda952cf	-0.082677476
24	0x3dd18f46	0.10232405
25	0x3db1ca9c	0.08681223
26	0xbd052624	-0.032507077
27	0x3cf76930	0.030201524
28	0xbcef85fd	-0.029238695
29	0xbd9d2a0e	-0.07674037
30	0x3ca45e63	0.020064538
31	0xbca135f0	-0.01967904
32	0xbde1266b	-0.10993656
33	0xbd632b9d	-0.055461515
34	0x3cc77d4e	0.024351742
35	0xbd834216	-0.06409089
36	0xbdccff69	-0.10009653
37	0x3be2a26b	0.0069163344
38	0xbe065d1b	-0.13121454
39	0xbd750291	-0.0598169
40	0xbe357df6	-0.17723832
41	0x3d2ca6dd	0.04215132
42	0xbda1189d	-0.07866023
43	0x3d835692	0.06412996
44	0xbdcedc79	-0.101006456
45	0x3e23be88	0.1599065
46	0xbc680a7b	-0.014162655
47	0x3cb38e9c	0.021918587
48	0x3dcb70bd	0.099336125
49	0xbc654c0f	-0.013995185
